test_agent.pt (torch, 40482 bytes, 11 tensors)

0.weight f4 [64, 2]
0.5406104 0.5869042 -0.16565566 0.6495563 -0.15492962 0.14268756 -0.3442585 0.41527155
0.62334496 -0.5187534 0.6146145 0.13234161 0.5224168 0.09576388 0.34095848 -0.09983712
0.5450986 0.10451668 -0.33010566 0.18024032 -0.32579 -0.082924426 -0.2871973 0.4690741
-0.558169 -0.32598352 -0.1996691 -0.42516384 0.06673894 -0.6983946 0.63859457 -0.60066473
0.54590577 0.11767611 -0.22960077 0.4369566 0.11020313 0.57131636 0.07730069 -0.22300251
0.18998805 -0.19175282 0.2975912 0.6313206 0.40874982 -0.30912766 0.40818775 0.12651995
0.35909358 -0.43098515 -0.69997096 -0.27319816 -0.54236704 0.5802086 0.2036689 0.2928932
0.22363041 -0.012300811 0.5533876 -0.502409 0.044522077 -0.4826288 0.21803778 -0.24351504
0.21666902 -0.14731967 0.5864686 -0.41910353 -0.42171705 -0.42174253 0.63600206 0.23564412
0.68041396 -0.58355844 -0.7013623 -0.5532147 -0.475663 0.28640664 0.25319785 0.58755225
-0.3651679 -0.48204303 0.3751754 -0.28581572 0.42915994 -0.16779688 0.40449753 -0.5493993
-0.35684127 0.2155802 0.1494877 -0.18028305 0.42148474 0.4806977 -0.512775 -0.37750182
0.6474708 -0.2386008 -0.25068092 -0.6841927 -0.404939 0.17663786 -0.09333327 -0.5132789
0.016586386 -0.48301154 -0.59990704 -0.38937727 -0.6188684 -0.4502418 0.7068302 0.13355476
0.21790181 -0.6595074 -0.4644092 -0.2353646 0.11057107 -0.62219834 -0.30467325 -0.4233226
0.0019595756 -0.2631167 -0.048999503 -0.47915655 -0.48535466 -0.41252735 -0.24204083 -0.5581059
00000000: 7165 0a3f 5b3f 163f a3a1 29be 5249 263f
00000010: dfa5 1ebe b01c 123e a642 b0be 799e d43e
00000020: 8993 1f3f 06cd 04bf 6057 1d3f 8f84 073e
00000030: 1bbd 053f da1f c43d 1c92 ae3e 6777 ccbd
00000040: 958b 0b3f d70c d63d 9c03 a9be eb90 383e
00000050: f2cd a6be 48d4 a9bd 860b 93be 7b2a f03e
00000060: 2ae4 0ebf 50e7 a6be 0e76 4cbe 13af d9be
00000070: 6dae 883d fdc9 32bf ef7a 233f 2ac5 19bf
00000080: 7bc0 0b3f 2c00 f13d 771c 6bbe c7b8 df3e
00000090: 2eb2 e13d ca41 123f d34f 9e3d c55a 64be
000000a0: 3a8c 423e da5a 44be e05d 983e 3a9e 213f
000000b0: a847 d13e fb45 9ebe fcfd d03e 728e 013e
000000c0: 1ddb b73e 16aa dcbe 4c31 33bf a1e0 8bbe
000000d0: 91d8 0abf 8d88 143f 958e 503e 19f6 953e
000000e0: 5fff 643e 5789 49bc cfaa 0d3f e09d 00bf
000000f0: c85c 363d 1f1b f7be 4c45 5f3e 025c 79be
00000100: 7cde 5d3e f8da 16be ce22 163f bd94 d6be
00000110: 4ceb d7be a3ee d7be 08d1 223f b14c 713e
00000120: 9c2f 2e3f 1664 15bf 7b8c 33bf 7b9f 0dbf
00000130: 1a8a f3be e4a3 923e 26a3 813e d369 163f
00000140: 49f7 babe 58ce f6be fd16 c03e 7056 92be
00000150: daba db3e f2d2 2bbe 4d1a cf3e 6fa5 0cbf
00000160: e6b3 b6be 0ec1 5c3e 4e13 193e 1f9c 38be
00000170: d9cc d73e 021e f63e 3945 03bf eb47 c1be
00000180: a5c0 253f c553 74be 4059 80be 4127 2fbf
00000190: 2a54 cfbe 8ee0 343e 8325 bfbd 3f66 03bf
000001a0: 2ce0 873c 4a4d f7be 8293 19bf 755c c7be
000001b0: 296e 1ebf 1886 e6be d3f2 343f 94c2 083e
000001c0: a721 5f3e 7ad5 28bf 0bc7 edbe 6b03 71be
000001d0: 1673 e23d 6448 1fbf 22fe 9bbe bdbd d8be
000001e0: 396c 003b 3bb7 86be b4b3 48bd 0254 f5be
000001f0: 6880 f8be c936 d3be 8dd9 77be 07e0 0ebf

0.bias f4 [64]
0.5928877 -0.14033526 0.60839236 0.2203218 -0.59877586 0.48934278 -0.19455676 -0.27105245
-0.58694845 -0.7029777 0.20231077 -0.15446314 0.27529302 -0.5802967 0.5249767 -0.51905435
-0.12209849 0.14769317 0.36504513 0.5708546 0.6441454 -0.5606806 0.17795563 -0.30414498
-0.07748816 -0.5292624 0.6440743 -0.51898134 0.3779141 0.24850532 0.22977854 -0.3822946
0.64272577 0.155387 0.09096225 -0.6231412 0.29683527 -0.106080584 -0.32394278 0.6073669
0.1576486 -0.3912255 -0.35789427 -0.033768393 0.39482105 -0.18068969 -0.40345737 -0.24214368
-0.52826166 0.25217724 0.54732907 -0.6656988 0.16422604 0.36528555 0.12821923 -0.25181815
0.36906883 0.37159392 0.26440647 -0.124253795 -0.18724276 0.07564693 -0.12491331 -0.21071856
00000000: 7dc7 173f 0cb4 0fbe 9abf 1b3f 0a9c 613e
00000010: 6049 19bf 238b fa3e e339 47be 63c7 8abe
00000020: 4142 16bf 59f6 33bf 8e2a 4f3e 962b 1ebe
00000030: 35f3 8c3e 538e 14bf df64 063f bfe0 04bf
00000040: c60e fabd e13c 173e 32e7 ba3e 8723 123f
00000050: b7e6 243f c488 0fbf 003a 363e e4b8 9bbe
00000060: 1db2 9ebd be7d 07bf 0ee2 243f f6db 04bf
00000070: f57d c13e 2e78 7e3e 114b 6b3e 1ebc c3be
00000080: ad89 243f c51d 1f3e 6b4a ba3d 2f86 1fbf
00000090: cbfa 973e c740 d9bd d4db a5be 667c 1b3f
000000a0: a26e 213e b54e c8be eb3d b7be ba50 0abd
000000b0: fc25 ca3e b806 39be f791 cebe 83f4 77be
000000c0: 283c 07bf 601d 813e c21d 0c3f 3d6b 2abf
000000d0: df2a 283e b506 bb3e e74b 033e 4fee 80be
000000e0: 97f6 bc3e 8f41 be3e 4960 873e c678 febd
000000f0: 91bc 3fbe c7ec 9a3d 8dd2 ffbd 9bc6 57be

2.weight f4 [64, 64]
0.07990086 0.107424945 -0.012374669 -0.027987108 0.0018240362 -0.0074635297 0.03005141 0.035029203
-0.113532096 -0.04612972 0.10526618 0.048694372 -0.0062171966 -0.07536322 -0.076475635 -0.11197086
-0.040745303 0.042213023 0.079702705 0.057712168 -0.110493004 -0.07517031 -0.019727081 0.12091869
0.018082187 -0.032371342 0.051714405 -0.047610193 -0.08090696 0.091235906 -0.056837723 -0.025058344
-0.12435053 0.08365883 0.09470433 0.045556024 -0.087159276 -0.12336749 -0.10152237 0.09321253
0.06001322 0.10518806 0.065483734 0.03163652 -0.0012240857 -0.095063254 -0.10709652 -0.11691858
0.051170245 -0.061371 -0.025156572 -0.07193816 -0.022777945 -0.08797936 -0.08167696 0.041463852
-0.03714955 0.0771679 -0.040101096 -0.091695905 -0.022054866 -0.060593426 -0.038242698 -0.11899945
0.069936365 -0.08702557 0.062827215 0.05672303 0.08930409 -0.09588151 0.0898996 -0.059093952
0.04638365 0.117389336 -0.017628983 -0.00096668303 -0.028778821 -0.10437307 0.059987858 -0.12408973
0.07759999 0.09352814 0.118213296 -0.029484943 -0.10270524 0.028103784 0.06905341 -0.124413595
-0.028372958 -0.074931934 -0.010932967 -0.061526686 -0.051095948 -0.03968236 -0.118788004 0.10256344
0.1047914 -0.019608632 -0.014235258 -0.05101499 -0.11288285 -0.12164305 0.046457306 -0.06863077
-0.08035962 -0.009752899 -0.041626394 -0.040440097 0.0040163994 -0.026514053 -0.043039054 -0.059850737
-0.101728424 0.1048134 -0.05002339 0.033122435 -0.04337074 0.01015766 0.116537556 0.057590336
-0.10832496 0.04961285 0.118655354 0.032885417 0.08380309 0.12323594 -0.019153625 0.025944307
-0.08687939 -0.025759637 0.09257297 0.06408073 -0.07909863 -0.100235626 -0.08542046 -0.12335971
-0.09645487 -0.030912176 0.084359646 0.02092278 -0.09507568 -0.10027799 0.06218441 -0.09298016
-0.015390933 0.059963256 -0.05785151 -0.013629988 -0.01088056 -0.029572919 -0.06337902 -0.111429796
-0.101044625 -0.06693271 0.120729715 -0.060376838 -0.083941 0.030299276 0.03445129 0.06848872
0.09501505 0.06960927 -0.12393762 0.0110860765 0.07571913 -0.011553183 -0.0736599 0.11916748
-0.04675348 -0.071168065 -0.11269438 0.0055835396 0.05539164 0.027670354 0.024718717 -0.09479843
-0.116735905 0.0022011697 0.113979265 0.07211517 -0.07277928 -0.016226068 -0.09214795 -0.060302928
0.022637293 0.06806731 0.10354616 -0.11476326 0.0835769 -0.08816151 0.046808407 0.10578066
0.0017552972 0.113726124 -0.10650644 -0.0477449 0.07290661 -0.027233481 -0.025587529 -0.05209896
0.08616327 0.0613129 0.04005626 -0.07024546 -0.1014687 0.013520077 0.037034854 -0.057713985
-0.03497471 0.084420964 0.009957463 0.0056397915 -0.030762568 -0.11319871 -0.11753218 -0.059751883
-0.063540176 0.0389442 -0.036388844 -0.048902765 0.11917873 0.04354036 0.08911279 -0.060514092
-0.051058352 0.04594256 -0.08328439 -0.081713006 -0.006037459 -0.045720086 -0.09370725 0.07414487
0.10052036 0.020277917 -0.02176416 -0.11578412 -0.045529842 0.031823203 0.058941364 -0.01580219
-0.049419105 0.06965326 -0.099549964 0.079002246 -0.048494354 0.001913175 -0.024701983 0.015154868
-0.0377748 0.09089087 -0.0032496452 0.097574934 0.12018506 -0.06089887 -0.09118864 0.10028775
00000000: 10a3 a33d 9c01 dc3d 20bf 4abc 3845 e5bc
00000010: 8014 ef3a a090 f4bb 602e f63c c87a 0f3d
00000020: 8483 e8bd 84f2 3cbd cc95 d73d c073 473d
00000030: a0b9 cbbb 0858 9abd 429f 9cbd fa50 e5bd
00000040: 8ce4 26bd 90e7 2c3d 2c3b a33d 9863 6c3d
00000050: 284a e2bd e4f2 99bd b09a a1bc 38a4 f73d
00000060: 1821 943c d097 04bd 7cd2 533d e802 43bd
00000070: 8cb2 a5bd e4d9 ba3d acce 68bd 2847 cdbc
00000080: 7eab febd 5255 ab3d 58f4 c13d f498 3a3d
00000090: 9080 b2bd 18a8 fcbd f6ea cfbd 36e6 be3d
000000a0: 6cd0 753d d66c d73d 561c 863d 4c95 013d
000000b0: 8071 a0ba 86b0 c2bd 6c55 dbbd 0273 efbd
000000c0: e497 513d 2860 7bbd 2815 cebc 5054 93bd
000000d0: d098 babc 862e b4bd 4046 a7bd 00d6 293d
000000e0: 202a 18bd 340a 9e3d 0c41 24bd 10cb bbbd
000000f0: 68ac b4bc d030 78bd 60a4 1cbd fcb5 f3bd
00000100: cc3a 8f3d 763a b2bd 8eab 803d 6856 683d
00000110: 10e5 b63d 865d c4bd 481d b83d 800c 72bd
00000120: c8fc 3d3d d269 f03d a86a 90bc 0069 7dba
00000130: 90c1 ebbc 8cc1 d5bd d4b5 753d c222 febd
00000140: beec 9e3d ae8b bf3d d019 f23d 688a f1bc
00000150: 2057 d2bd e839 e63c e06b 8d3d 8ecc febd
00000160: 686e e8bc ea75 99bd 3020 33bc 6803 7cbd
00000170: fc49 51bd f889 22bd 2047 f3bd c80c d23d
00000180: e09c d63d 48a2 a0bc 003b 69bc 18f5 50bd
00000190: 202f e7bd fe1f f9bd 044a 3e3d 4a8e 8cbd
000001a0: 9693 a4bd a0ca 1fbc 7080 2abd 84a4 25bd
000001b0: 009c 833b 0034 d9bc b849 30bd 0c26 75bd
000001c0: fe56 d0bd 68a8 d63d 54e5 4cbd 64ab 073d
000001d0: 84a5 31bd 506c 263c 3eab ee3d d8e3 6b3d
000001e0: 7ad9 ddbd d836 4b3d 9401 f33d dcb2 063d
000001f0: f4a0 ab3d 2063 fc3d 10e8 9cbc 2889 d43c
00000200: d2ed b1bd e005 d3bc e696 bd3d c23c 833d
00000210: 76fe a1bd 5648 cdbd ecf0 aebd 04a4 fcbd
00000220: 228a c5bd 883b fdbc c0c4 ac3d 4066 ab3c
00000230: 0ab7 c2bd 8c5e cdbd 14b5 7e3d 626c bebd
00000240: 402a 7cbc 089c 753d b4f5 6cbd 5050 5fbc
00000250: 6044 32bc e842 f2bc dccc 81bd 4e35 e4bd
00000260: 7cf0 cebd 0414 89bd 2441 f73d b44d 77bd
00000270: 42e9 abbd 3036 f83c cc1c 0d3d d043 8c3d
00000280: 4097 c23d 4e8f 8e3d 02d3 fdbd 60a2 353c
00000290: a212 9b3d 9049 3dbc 00db 96bd 140e f43d
000002a0: 9480 3fbd 90c0 91bd 50cc e6bd 20f6 b63b
000002b0: 58e2 623d f0ac e23c e87e ca3c ae25 c2bd
000002c0: 3c13 efbd 8041 103b f66d e93d 1eb1 933d
000002d0: 4e0d 95bd 88ec 84bc 10b8 bcbd 3400 77bd
000002e0: d871 b93c e066 8b3d 0210 d43d 0009 ebbd
000002f0: 5e2a ab3d 068e b4bd 2cba 3f3d 88a3 d83d
00000300: 0012 e63a 3ee9 e83d 0c20 dabd 2890 43bd
00000310: 1050 953d c018 dfbc f09c d1bc b865 55bd
00000320: 5e76 b03d 3c23 7b3d 0812 243d dadc 8fbd
00000330: d2ce cfbd 5083 5d3c dcb1 173d 8065 6cbd
00000340: a441 0fbd e6e4 ac3d a024 233c 00ce b83b
00000350: c801 fcbc bad4 e7bd b6b4 f0bd 64be 74bd
00000360: 5a21 82bd f483 1f3d 780c 15bd 444e 48bd
00000370: fa13 f43d 6057 323d c480 b63d a0dd 77bd
00000380: 9022 51bd 442e 3c3d 0291 aabd 2659 a7bd
00000390: e0d5 c5bb fc44 3bbd 96e9 bfbd 44d9 973d
000003a0: 9edd cd3d e01d a63c c04a b2bc 3a20 edbd
000003b0: 807d 3abd 0c59 023d 806c 713d 9873 81bc
000003c0: b06b 4abd 5ea6 8e3d dae0 cbbd eecb a13d
000003d0: 04a2 46bd 80c3 fa3a d05b cabc 204c 783c
000003e0: c0b9 1abd fe24 ba3d 00f8 54bb 5ed5 c73d
000003f0: 9623 f63d 1871 79bd 1cc1 babd aa63 cd3d

2.bias f4 [64]
0.029745251 0.057944313 -0.04023865 0.08174674 0.017972633 -0.025109172 0.024089158 -0.0983931
0.0045962483 0.05732663 -0.117048234 -0.0663975 0.07831518 0.0028347522 -0.0042577833 0.012756094
-0.056102455 0.10336535 -0.0123940855 -0.045513734 0.065798715 -0.104043484 -0.023056686 0.012598544
-0.038792804 0.0680318 -0.10674989 -0.0360367 -0.052537233 0.11566664 0.049885646 -0.09324536
0.048445582 -0.0026508868 0.11442827 0.06898306 -0.073003456 0.11142373 -0.022356927 -0.028463677
0.03737846 0.124188855 0.03771612 -0.12060794 -0.039903134 0.116398335 -0.04405661 -0.060136855
-0.099635854 -0.06900166 -0.06834315 0.029853374 0.04994069 0.11929689 0.08203356 0.0018469989
0.06741199 0.0714484 -0.10781562 0.063074395 -0.08550842 0.0965271 -0.054367915 0.025935978
00000000: 50ac f33c 0457 6d3d 48d1 24bd d66a a73d
00000010: 583b 933c c0b1 cdbc a056 c53c 5282 c9bd
00000020: 209c 963b 54cf 6a3d fcb6 efbd 6afb 87bd
00000030: b663 a03d 40c7 393b e084 8bbb f0fe 503c
00000040: b0cb 65bd 36b1 d33d 9010 4bbc 9c6c 3abd
00000050: 7ac1 863d c014 d5bd 60e1 bcbc 206a 4e3c
00000060: 34e5 1ebd 4254 8b3d b09f dabd 389b 13bd
00000070: 4831 57bd a2e2 ec3d e454 4c3d 6cf7 bebd
00000080: e06e 463d 80ba 2dbb 5e59 ea3d fe46 8d3d
00000090: d682 95bd 2032 e43d e025 b7bc a82c e9bc
000000a0: 281a 193d ba56 fe3d 387c 1a3d 4c01 f7bd
000000b0: 7871 23bd 4062 ee3d b474 34bd 1052 76bd
000000c0: e20d ccbd be50 8dbd 7ef7 8bbd 108f f43c
000000d0: 9c8e 4c3d ee51 f43d 3601 a83d 0017 f23a
000000e0: 4c0f 8a3d 8a53 923d 70ce dcbd 262d 813d
000000f0: 0a1f afbd 00b0 c53d e4b0 5ebd b077 d43c

4.weight f4 [4, 64]
-0.0013300478 0.05799292 0.019442528 -0.09067437 0.050636336 0.07373704 -0.065095544 -0.081088334
-0.08511679 -0.060819417 -0.015759498 0.009346306 -0.0008816421 -0.033061147 0.07756978 0.006605923
-0.072581574 -0.03308125 -0.07349186 -0.044098333 -0.11791308 0.021841288 -0.0968546 0.048345685
0.08562997 -0.09299095 -0.06596643 -0.09876707 0.033358827 0.02418688 -0.06451845 0.0755101
0.05186835 -0.11294231 -0.00679937 -0.053811163 -0.021673769 0.0696006 -0.013445035 -0.08681421
0.08792932 -0.11425571 -0.042929128 0.04816419 0.110486135 0.12131782 -0.029365033 0.041712075
-0.109778926 -0.02432254 -0.03888206 0.035484225 -0.08190031 0.02700591 0.06457937 0.09741841
-0.021135941 0.114200786 -0.11810075 -0.035421774 0.04738936 0.032053307 0.0588672 -0.0829469
0.076966554 -0.117315575 -0.08570978 -0.008501023 -0.12143837 -0.11881611 -0.11096656 0.1004986
0.027419373 -0.03988391 -0.005137354 -0.10895233 -0.11805633 -0.08717239 -0.12092981 0.08223908
-0.043741375 -0.033743024 -0.1076432 0.02070263 -0.018754274 -0.08509846 0.080145076 0.10536371
-0.089097425 0.07082254 -0.02029711 -0.0011801273 0.05320607 -0.022789717 0.10620542 0.07690823
-0.08114149 -0.07607031 -0.12385 0.04002075 -0.09402335 -0.104772374 -0.08012089 -0.12358397
-0.101780385 0.111495614 0.069823176 0.11075325 -0.060635135 -0.051268935 -0.043858483 0.0024413168
-0.08972068 0.018325254 -0.08011235 0.019752517 0.11449969 0.021112382 0.09118052 -0.08902614
-0.017640471 -0.07718481 -0.013868362 -0.04972461 -0.070973545 -0.120742574 -0.04634911 0.0167398
-0.02199006 -0.11641814 0.0938973 0.09268586 -0.07536265 0.012706906 0.08300112 -0.11870603
-0.110450014 0.06935817 -0.0024757683 0.039804757 -0.051981866 0.022663817 0.0829051 -0.030580938
-0.04037568 -0.119023636 -0.01928854 0.079208195 -0.118133605 -0.009655833 0.091116846 -0.035676837
-0.04618354 -0.03770396 -0.050644636 0.014960781 -0.120350495 0.047767147 -0.03156948 -0.015914813
-0.00843364 0.069829315 -0.07764557 -0.11374797 -0.09041865 -0.09169881 -0.060858563 0.09872694
-0.09670189 -0.07347849 -0.10190046 -0.06279537 -0.003509149 -0.076220706 0.0013212562 0.042242363
-0.02126731 0.053932488 0.028683454 0.12075098 -0.0063817054 0.10834491 0.09356159 0.05975607
0.0707417 -0.08371273 -0.08371821 0.053380415 0.04538767 0.11280446 -0.016275093 -0.022978619
0.08569211 0.004036933 0.1173528 -0.06375916 -0.04101275 0.0054010004 0.06666805 -0.10958347
-0.034989506 0.0907799 0.02602768 0.088372335 -0.04234186 -0.07879774 -0.08533852 -0.07027881
-0.09393847 0.06194617 0.033598185 -0.07997805 0.1145746 0.035587385 0.046519652 -0.052669138
0.086542234 -0.0881736 0.09111588 -0.06792675 0.053092003 -0.045220494 0.08120865 -0.1048339
-0.02437234 -0.033739537 -0.074746504 -0.061399266 -0.035075635 0.012961134 0.088725746 -0.020540908
0.12252508 -0.059483767 -0.06435186 -0.006520331 -0.022629187 0.039704084 0.11549826 0.042798758
-0.10459618 -0.04270734 -0.024833053 -0.11382456 0.03864853 0.10911322 0.06208171 -0.0024751723
-0.009516418 -0.05853671 -0.01388669 0.109629616 -0.064265296 0.019998208 -0.09171519 -0.034182712
00000000: 0055 aeba fc89 6d3d f045 9f3c 7cb3 b9bd
00000010: 0c68 4f3d 7203 973d d050 85bd a411 a6bd
00000020: b651 aebd c81d 79bd 101a 81bc 4021 193c
00000030: 001e 67ba 206b 07bd e8dc 9e3d 8076 d83b
00000040: a6a5 94bd 3480 07bd e682 96bd 74a0 34bd
00000050: 6a7c f1bd 80ec b23c b45b c6bd 2006 463d
00000060: c45e af3d 0a72 bebd 6819 87bd 6446 cabd
00000070: 44a3 083d 9023 c63c 4022 84bd 0aa5 9a3d
00000080: e873 543d 4c4e e7bd 40cd debb 1869 5cbd
00000090: 308d b1bc c28a 8e3d 9048 5cbc a6cb b1bd
000000a0: 4a14 b43d e6fe e9bd 74d6 2fbd d047 453d
000000b0: 8e46 e23d 7a75 f83d f08e f0bc 48da 2a3d
000000c0: c6d3 e0bd 1040 c7bc cc42 1fbd e857 113d
000000d0: 5abb a7bd 803b dd3c 3042 843d 4e83 c73d
000000e0: 4825 adbc 1ae2 e93d cede f1bd 6c16 11bd
000000f0: 581b 423d 544a 033d bc1e 713d 10e0 a9bd
00000100: a4a0 9d3d 2643 f0bd 9c88 afbd e047 0bbc
00000110: aeb4 f8bd dc55 f3bd 7042 e3bd 36d2 cd3d
00000120: 989e e03c 505d 23bd 4057 a8bb 6622 dfbd
00000130: 84c7 f1bd 7087 b2bd 0caa f7bd f66c a83d
00000140: 282a 33bd 2036 0abd 0a74 dcbd 9098 a93c
00000150: 90a2 99bc 1a48 aebd 1a23 a43d eec8 d73d
00000160: b678 b6bd 680b 913d 2046 a6bc 80ae 9aba
00000170: 9cee 593d 80b1 babc 3a82 d93d 1082 9d3d
00000180: 822d a6bd c0ca 9bbd 12a5 fdbd ccec 233d
00000190: 508f c0bd e692 d6bd 6c16 a4bd 9819 fdbd
000001a0: 3c72 d0bd d057 e43d 74ff 8e3d 9ad2 e23d
000001b0: 8c5c 78bd 60ff 51bd f4a4 33bd 80fe 1f3b
000001c0: 7abf b7bd d81e 963c f211 a4bd 08d0 a13c
000001d0: d07e ea3d e0f3 ac3c dabc ba3d 5653 b6bd
000001e0: c082 90bc 1213 9ebd 2038 63bc 08ac 4bbd
000001f0: 945a 91bd e247 f7bd 90d8 3dbd e821 893c
00000200: 8024 b4bc a26c eebd 3a4d c03d 16d2 bd3d
00000210: bc57 9abd a030 503c 7efc a93d 261c f3bd
00000220: 9e33 e2bd a80b 8e3d 8040 22bb 500a 233d
00000230: f0ea 54bd 78a9 b93c 26ca a93d e084 fabc
00000240: f860 25bd aac2 f3bd 0003 9ebc e837 a23d
00000250: 08f0 f1bd 8033 1ebc 789b ba3d e021 12bd
00000260: f42a 3dbd 786f 1abd c070 4fbd 101e 753c
00000270: 527a f6bd 7ca7 433d 004f 01bd c85f 82bc
00000280: 402d 0abc ac02 8f3d a404 9fbd b2f4 e8bd
00000290: 6a2d b9bd 96cc bbbd d446 79bd 5a31 ca3d
000002a0: a40b c6bd e47b 96bd 30b1 d0bd dc9a 80bd
000002b0: c0f9 65bb 9a19 9cbd 002e ad3a 5406 2d3d
000002c0: c838 aebc 50e8 5c3d 90f9 ea3c 4a4c f73d
000002d0: a01d d1bb f0e3 dd3d 389d bf3d c8c2 743d
000002e0: 06e1 903d 9471 abbd 7474 abbd 6ca5 5a3d
000002f0: 6ce8 393d 0606 e73d 5853 85bc a83d bcbc
00000300: 587f af3d 4048 843b aa56 f03d 2a94 82bd
00000310: fcfc 27bd e0fa b03b 4289 883d 4c6d e0bd
00000320: 2851 0fbd d0ea b93d 0038 d53c 8efc b43d
00000330: a86e 2dbd b660 a1bd f6c5 aebd 56ee 8fbd
00000340: d062 c0bd 44bb 7d3d 409e 093d 88cb a3bd
00000350: 16a6 ea3d 14c4 113d 648b 3e3d 98bb 57bd
00000360: 0e3d b13d 5c94 b4bd f69a ba3d 2e1d 8bbd
00000370: 0077 593d 2039 39bd b850 a63d 28b3 d6bd
00000380: 80a8 c7bc 7832 0abd b214 99bd cc7d 7bbd
00000390: 78ab 0fbd f05a 543c d8b5 b53d 6845 a8bc
000003a0: 6eee fa3d 40a5 73bd e8ca 83bd 80a8 d5bb
000003b0: d860 b9bc c0a0 223d 5a8a ec3d c04d 2f3d
000003c0: 8636 d6bd e4ed 2ebd b06e cbbc da1c e9bd
000003d0: ec4d 1e3d c076 df3d 6449 7e3d 8036 22bb
000003e0: c0ea 1bbc 30c4 6fbd 0085 63bc 7e85 e03d
000003f0: 869d 83bd 48d3 a33c 2cd5 bbbd 2c03 0cbd

4.bias f4 [4]
0.0072383434 -0.09438741 0.03396237 -0.10734047
00000000: a02f ed3b 304e c1bd 201c 0b3d 52d5 dbbd

0.weight f4 [64, 2]
-0.28885594 0.49207422 0.6633044 -0.055284526 -0.5053988 -0.5805863 -0.17377298 -0.36084226
0.56208706 -0.50407445 0.42563123 0.13444154 -0.21506795 0.57639617 0.3934973 -0.02473135
-0.47926143 -0.20811962 0.22799051 0.6126869 -0.23861885 -0.29386166 -0.6908792 0.4346189
0.69015455 0.48682797 -0.39400804 0.5065558 -0.21437244 0.3696889 0.4134562 -0.5765004
0.17498654 0.28229317 -0.4250898 0.65375495 0.55202085 0.5909751 -0.006378841 -0.3783294
-0.3864191 0.24992508 -0.1404799 0.56202114 0.59220517 0.054566763 -0.5788976 0.28067213
0.6327864 -0.17760362 -0.370065 -0.1654112 0.10130737 -0.5246478 0.377621 0.3022503
-0.27034935 -0.2619441 -0.33551612 0.5527428 0.41938052 0.2009807 -0.031714577 0.17664486
0.6822167 0.22388254 -0.35265556 0.27353027 -0.28060874 -0.025108732 -0.45543143 -0.020688117
0.036889028 -0.42884433 0.4545991 0.6530759 -0.5914499 0.20489445 -0.488472 -0.14054288
0.33871567 -0.012412668 0.214276 -0.229102 0.674809 -0.3319786 0.1323459 0.072582684
0.48166505 0.07220817 0.42632827 0.18218835 0.45086405 0.008936986 0.2359491 0.6975042
-0.2303724 -0.28774184 0.5132955 0.27039698 -0.66744417 0.25149158 -0.69349796 -0.38390434
0.27672195 0.37248617 -0.15966111 0.598542 0.70271134 0.551384 -0.64944744 -0.2572014
0.043020975 0.5747166 -0.11861539 0.14771408 0.37217993 -0.36995777 -0.42822066 0.69928193
-0.015778095 0.50034016 -0.68949413 -0.26990184 0.49616736 -0.068457946 0.23817132 -0.5923575
00000000: ede4 93be 27f1 fb3e 51ce 293f 0772 62bd
00000010: d161 01bf 4ea1 14bf 8bf1 31be 51c0 b8be
00000020: f0e4 0f3f 060b 01bf 56ec d93e 0bab 093e
00000030: c63a 5cbe b38e 133f 7a78 c93e 6699 cabc
00000040: c161 f5be 4f1d 55be 5876 693e 0cd9 1c3f
00000050: 8058 74be 0975 96be 76dd 30bf 5e86 de3e
00000060: f8ad 303f 8441 f93e 6cbb c9be a4ad 013f
00000070: 7384 5bbe dd47 bd3e 88b0 d33e 8895 13bf
00000080: ac2f 333e bb88 903e 5fa5 d9be 7c5c 273f
00000090: 3d51 0d3f 254a 173f 9905 d1bb 64b4 c1be
000000a0: b9d8 c5be 5cec 7f3e f7d9 0fbe 9ee0 0f3f
000000b0: c29a 173f 6681 5f3d a232 14bf 42b4 8f3e
000000c0: 4afe 213f b9dd 35be 2979 bdbe 8e61 29be
000000d0: 3d7a cf3d 514f 06bf 8a57 c13e 8dc0 9a3e
000000e0: 3b6b 8abe 891d 86be c5c8 abbe 8d80 0d3f
000000f0: 0bb9 d63e e2cd 4d3e 25e7 01bd 64e2 343e
00000100: c1a5 2e3f 7741 653e 458f b4be 290c 8c3e
00000110: f3ab 8fbe d4b0 cdbc 4f2e e9be 207a a9bc
00000120: f318 173d 7c91 dbbe 37c1 e83e fb2f 273f
00000130: 4369 17bf dacf 513e 0119 fabe 79ea 0fbe
00000140: 246c ad3e 815e 4bbc 2b6b 5b3e b799 6abe
00000150: 48c0 2c3f 19f9 a9be af85 073e 3ba6 943d
00000160: cd9c f63e e1e1 933d b347 da3e 958f 3a3e
00000170: a7d7 e63e 706c 123c a49c 713e a38f 323f
00000180: bee6 6bbe e652 93be 5567 033f 7971 8a3e
00000190: 9fdd 2abf 81c3 803e 1589 31bf 1c8f c4be
000001a0: 80ae 8d3e 82b6 be3e 347e 23be 0c3a 193f
000001b0: e4e4 333f 8027 0d3f 3042 26bf e7af 83be
000001c0: c336 303d a120 133f a0ec f2bd 5c42 173e
000001d0: 5e8e be3e 1b6b bdbe bd3f dbbe 2404 333f
000001e0: 1041 81bc 4b16 003f b082 30bf 9330 8abe
000001f0: a609 fe3e ae33 8cbd 2fe3 733e bea4 17bf

0.bias f4 [64]
0.6882459 -0.35292447 -0.035754435 -0.46315238 -0.31372452 -0.60619354 -0.618922 -0.1444589
-0.3118973 0.5223387 -0.0034211439 0.5498437 -0.11843298 0.15001622 0.6791072 -0.5471594
-0.30632237 0.60450673 -0.16211624 -0.19043371 0.056748033 -0.3796047 0.05085363 -0.2938941
0.22432221 -0.15010145 -0.2372795 -0.2663716 0.18371229 0.35485438 -0.6464653 -0.49315733
-0.67862284 0.33007473 0.5303132 -0.67938924 0.18381985 0.14340407 -0.3794565 0.15277179
0.5452337 0.6935794 0.3057709 -0.14020848 -0.4023301 -0.26930773 0.005799659 -0.051927276
0.51596296 -0.639019 0.06311373 -0.2248944 0.058966726 0.67998326 0.02068601 -0.12263915
-0.23966426 -0.7056487 -0.640646 0.3080997 -0.43180677 0.40145767 -0.2004735 0.25510594
00000000: e230 303f 84b2 b4be 3e73 12bd 4f22 edbe
00000010: 80a0 a0be 802f 1bbf ac71 1ebf 09ed 13be
00000020: 01b1 9fbe fdb7 053f 4535 60bb 8fc2 0c3f
00000030: fd8c f2bd da9d 193e f8d9 2d3f a312 0cbf
00000040: 49d6 9cbe f4c0 1a3f cd01 26be 0e01 43be
00000050: a070 683d 8c5b c2be e54b 503d 4a79 96be
00000060: b9b4 653e 32b4 19be 66f9 72be dc61 88be
00000070: 131f 3c3e 79af b53e c07e 25bf 1e7f fcbe
00000080: 3aba 2dbf 8eff a83e 9bc2 073f 74ec 2dbf
00000090: 453b 3c3e 84d8 123e 1f48 c2be 3570 1c3e
000000a0: 7094 0b3f 6b8e 313f 018e 9c3e d092 0fbe
000000b0: 36fe cdbe b4e2 89be 110b be3b b2b1 54bd
000000c0: 2616 043f c096 23bf c541 813d b84a 66be
000000d0: 1887 713d 6213 2e3f b575 a93c 3c2a fbbd
000000e0: 8c6a 75be 65a5 34bf 6001 24bf 3ebf 9d3e
000000f0: c715 ddbe dc8b cd3e ed48 4dbe 3f9d 823e

2.weight f4 [64, 64]
0.09124942 0.0182859 0.042919874 0.10563445 -0.039279386 0.09192751 -0.10512823 0.114462
-0.04100178 -0.0047047287 0.07012348 0.009177074 0.10930173 -0.054939672 -0.06889629 0.11158797
-0.075448945 0.08602309 0.12038964 0.08461644 -0.04725927 -0.0018477887 -0.11265005 -0.06806435
-0.02587232 -0.08258721 0.07211414 0.06549901 -0.03577037 -0.01965867 0.12074509 -0.007699296
0.10617049 0.115789086 -0.0438471 -0.11938533 0.11659588 -0.06720659 0.11953427 -0.07979958
0.02267161 0.036958635 -0.029527456 0.09747678 -0.11333422 -0.051942214 -0.019676626 0.095735446
0.057893693 0.080406725 0.05380501 0.11242859 -0.031130254 -0.03858897 -0.017164856 0.04917343
-0.036656335 0.045910135 0.034271166 0.029391408 0.10184264 0.019909322 0.08294791 -0.03485021
-0.1123288 0.07639499 0.051841542 0.10500932 0.04776162 0.002498135 -0.09022547 -0.11851089
0.025086448 0.1019755 -0.009717405 -0.04077947 0.06253505 -0.060518086 0.04410793 -0.101435006
-0.1132838 -0.07292479 -0.021402448 0.04214987 0.06324652 -0.0791187 -0.025672302 0.041158214
-0.027566448 0.0018784404 0.08092573 -0.036060438 0.06444526 0.10156757 0.041670516 -0.022211105
-0.07914765 -0.082618415 -0.024287537 0.039064556 0.06836471 -0.006030038 0.10073069 -0.04950905
0.024926588 -0.063996345 0.033588752 0.10668367 0.043799907 0.008375347 -0.04600361 -0.10255669
-0.085538715 -0.10722394 0.08884314 -0.05214697 -0.018703222 -0.11201331 -0.034854963 0.106320634
0.022981271 -0.022320434 0.065151095 0.09636913 0.09727086 -0.09248707 0.008974612 -0.10264626
-0.0861842 0.09598552 -0.0995899 -0.061302125 0.0599463 0.12162167 -0.121427014 -0.08066003
-0.049016684 0.096832246 0.0728464 0.07792798 0.08009511 -0.031282887 0.09216705 -0.0035125464
0.011744201 -0.033149034 0.053026363 0.0558203 -0.013250053 0.11004241 -0.03237328 0.03163871
0.11353247 0.070427 -0.045517683 -0.05662264 0.024124429 -0.0009473562 0.008797362 0.080520526
0.043693706 -0.07010548 -0.10205817 0.118177205 -0.013761252 -0.04924546 -0.09180762 0.12003486
0.06307571 -0.07924195 -0.10795833 0.1085902 0.05381772 -0.01836124 -0.103885755 0.07576327
-0.08485262 0.061425358 -0.11872244 -0.11145119 -0.11991562 0.11331782 0.11359236 -0.106660455
0.09662929 -0.075978294 -0.116169095 0.060157567 0.07085778 0.07085347 0.021937162 0.11996347
-0.107682034 0.05767384 -0.03961061 0.006173536 0.086210996 -0.08951309 0.054779023 -0.024967462
0.08085255 -0.0032824576 0.062017143 0.119936496 -0.044631258 -0.12313083 0.11790955 -0.068819895
0.028566167 0.07774228 -0.019411802 0.097691774 0.081006765 -0.025166035 0.03277348 0.009472951
0.12228611 0.086541146 -0.08325522 0.012043983 0.06741992 0.095562994 0.04267901 0.053114623
-0.023079202 0.0027112365 -0.08651307 0.102905124 0.0984299 -0.06883071 -0.10701801 0.09747346
-0.11078888 0.08016522 -0.121754974 -0.06390664 -0.05292432 0.117475644 -0.021151885 0.10782336
0.03631778 0.12109786 0.08279346 0.0920593 0.10898115 -0.036931396 -0.034368172 0.04027608
0.11011778 -0.046001002 -0.0983268 -0.09778266 -0.057750016 0.019945651 -0.014465064 -0.033334956
00000000: fae0 ba3d 50cc 953c c0cc 2f3d e056 d83d
00000010: 6ce3 20bd 7e44 bc3d 784d d7bd 0e6b ea3d
00000020: 7cf1 27bd 202a 9abb e69c 8f3d 705b 163c
00000030: 96d9 df3d 6c08 61bd 8019 8dbd 3c88 e43d
00000040: fa84 9abd e02c b03d d88e f63d 624b ad3d
00000050: f092 41bd 8031 f2ba 12b5 e6bd 5265 8bbd
00000060: 30f2 d3bc 7c23 a9bd 94b0 933d 5824 863d
00000070: f483 12bd 380b a1bc 3449 f73d 604a fcbb
00000080: ea6f d93d d422 ed3d 0499 33bd 4c80 f4bd
00000090: d2c9 ee3d 9ca3 89bd 62ce f43d f66d a3bd
000000a0: d0b9 b93c f061 173d 90e3 f1bc e8a1 c73d
000000b0: c61b e8bd 5cc1 54bd e030 a1bc f210 c43d
000000c0: f021 6d3d 48ac a43d a462 5c3d f640 e63d
000000d0: e004 ffbc 780f 1ebd 509d 8cbc 146a 493d
000000e0: f424 16bd 440c 3c3d ec5f 0c3d 40c6 f03c
000000f0: e092 d03d e018 a33c 98e0 a93d 18bf 0ebd
00000100: a40c e6bd fa74 9c3d cc57 543d 200f d73d
00000110: b0a1 433d c0b7 233b 22c8 b8bd d6b5 f2bd
00000120: 1882 cd3c 88d8 d03d c035 1fbc 6008 27bd
00000130: 6012 803d d0e1 77bd 84aa 343d 28bd cfbd
00000140: 5601 e8bd 9859 95bd 3054 afbc 58a5 2c3d
00000150: 6487 813d fc08 a2bd b84e d2bc 8495 283d
00000160: 08d3 e1bc 0036 f63a 64bc a53d 1cb4 13bd
00000170: e0fb 833d a802 d03d b4ae 2a3d 10f4 b5bc
00000180: 2a18 a2bd d833 a9bd a8f6 c6bc 2802 203d
00000190: cc02 8c3d a097 c5bb e44b ce3d 00ca 4abd
000001a0: d832 cc3c 8410 83bd 5c94 093d f87c da3d
000001b0: 8867 333d c038 093c 486e 3cbd 3e09 d2bd
000001c0: ec2e afbd 3a98 dbbd 64f3 b53d 1098 55bd
000001d0: 8037 99bc 3c67 e5bd 14c4 0ebd a2be d93d
000001e0: 3843 bc3c 58d9 b6bc f06d 853d 2e5d c53d
000001f0: f235 c73d dc69 bdbd 400a 133c 3438 d2bd
00000200: 5881 b0bd 0e94 c43d caf5 cbbd f017 7bbd
00000210: 408a 753d c814 f93d baae f8bd 1631 a5bd
00000220: b8c5 48bd fc4f c63d 7e30 953d b498 9f3d
00000230: e808 a43d 7c22 00bd 14c2 bc3d c032 66bb
00000240: c06a 403c 48c7 07bd 2c32 593d d4a3 643d
00000250: c016 59bc ea5d e13d d899 04bd 9897 013d
00000260: b683 e83d 083c 903d c070 3abd 24ed 67bd
00000270: 98a0 c53c 0058 78ba d022 103c f2e7 a43d
00000280: 2cf8 323d 7693 8fbd e003 d1bd e406 f23d
00000290: e076 61bc 9cb5 49bd a205 bcbd d6d4 f53d
000002a0: d62d 813d 9a49 a2bd 4219 ddbd 8a64 de3d
000002b0: f86f 5c3d 506a 96bc 0ec2 d4bd c629 9b3d
000002c0: 36c7 adbd 2899 7b3d c024 f3bd 8640 e4bd
000002d0: 5296 f5bd 2c13 e83d 1ca3 e83d cc70 dabd
000002e0: 94e5 c53d 829a 9bbd 10ea edbd c867 763d
000002f0: e21d 913d a01b 913d 90b5 b33c 68af f53d
00000300: 6688 dcbd 683b 6c3d bc3e 22bd 604b ca3b
00000310: 648f b03d a452 b7bd f85f 603d 9088 ccbc
00000320: 0696 a53d 801e 57bb b005 7e3d 44a1 f53d
00000330: 44cf 36bd 042c fcbd 907a f13d 72f1 8cbd
00000340: 9803 ea3c 5837 9f3d 8005 9fbc a012 c83d
00000350: e0e6 a53d 0029 cebc 7c3d 063d 7034 1b3c
00000360: 2471 fa3d 7c3c b13d b681 aabd 2054 453c
00000370: 7413 8a3d 88b6 c33d 30d0 2e3d b88e 593d
00000380: 9810 bdbc 00af 313b c42d b1bd ecbf d23d
00000390: 9e95 c93d 1ef7 8cbd 422c dbbd 2aa0 c73d
000003a0: 48e5 e2bd aa2d a43d ac5a f9bd 7ce1 82bd
000003b0: 2cc7 58bd 1297 f03d b846 adbc 7ed2 dc3d
000003c0: f4c1 143d 2802 f83d 9e8f a93d 9689 bc3d
000003d0: 8231 df3d 6045 17bd a4c5 0cbd 88f8 243d
000003e0: 6e85 e13d 8c6b 3cbd 905f c9bd 4642 c8bd
000003f0: 488b 6cbd 1065 a33c e0fe 6cbc 3c8a 08bd

2.bias f4 [64]
0.0057043284 -0.05502422 -0.10997495 -0.05930662 -0.08784649 0.025597021 0.091596514 -0.024708942
0.07608408 -0.02656369 -0.059491396 -0.114394605 -0.08376466 0.09383538 0.084191814 0.12060735
-0.012611836 0.042254075 -0.015341535 0.12372263 -0.09967309 -0.033941314 -0.11985269 0.012344286
-0.09731595 -0.08766715 0.028908 0.12436716 0.10418676 0.08588269 -0.030938223 -0.0037739873
-0.11237268 0.084027395 0.03415267 0.10610089 -0.121521145 -0.030483887 -0.08050412 -0.09566079
-0.07431449 0.039490998 0.083097816 0.056449533 -0.04281521 0.055139616 0.123117775 0.0061128438
-0.04498197 -0.09870401 0.088362366 -0.028566688 -0.09806982 0.072286114 0.024919942 -0.050452054
-0.12303957 0.015680566 -0.037020355 -0.021675855 -0.041698933 0.10281211 0.066349864 0.099099725
00000000: 60eb ba3b 1461 61bd 8c3a e1bd 80eb 72bd
00000010: dce8 b3bd d8b0 d13c f496 bb3d 686a cabc
00000020: f8d1 9b3d 189c d9bc 40ad 73bd b847 eabd
00000030: ce8c abbd c42c c03d c26c ac3d fc00 f73d
00000040: e0a1 4ebc 9c12 2d3d 105b 7bbc 4a62 fd3d
00000050: 6821 ccbd 0c06 0bbd 5475 f5bd b03f 4a3c
00000060: 964d c7bd d68a b3bd 78d0 ec3c 36b4 fe3d
00000070: de5f d53d 44e3 af3d 2872 fdbc 0055 77bb
00000080: a623 e6bd 8e16 ac3d ace3 0b3d 6c4b d93d
00000090: 14e0 f8bd 58b9 f9bc 58df a4bd cee9 c3bd
000000a0: 3232 98bd 50c1 213d 302f aa3d a037 673d
000000b0: 005f 2fbd 14da 613d 2c25 fc3d 404e c83b
000000c0: 043f 38bd 5425 cabd 54f7 b43d b004 eabc
000000d0: d4d8 c8bd be0a 943d e824 cc3c d0a6 4ebd
000000e0: 2cfc fbbd 8874 803c a8a2 17bd 9091 b1bc
000000f0: 80cc 2abd 288f d23d 70e2 873d ccf4 ca3d

4.weight f4 [1, 64]
0.047193855 0.035672575 0.12336415 -0.00044377148 0.07186057 0.050828323 -0.11963102 0.08491966
-0.0122579485 -0.084405154 0.08423866 -0.10124007 0.05860974 -0.10282256 -0.035853103 -0.1172739
0.0893956 0.030904204 0.1019994 0.03815061 -0.06197959 0.018795848 0.08459136 -0.09664124
-0.083387956 -0.03179492 -0.07809283 -0.022708237 0.11837119 0.06950641 -0.10134378 -0.06744929
0.10031277 -0.009586498 -0.052633464 0.024438307 -0.019845724 0.04211466 0.0023027658 0.0710745
0.06880987 0.043885127 0.038718954 -0.03210008 -0.11569016 -0.012034267 -0.09493649 -0.099990904
-0.11006872 -0.031236574 -0.092438996 0.021134526 0.053980067 0.07426168 -0.12064876 0.10517505
0.03719315 0.10143834 0.06056741 0.022723675 -0.023992196 0.10457638 -0.0813577 0.09750269
00000000: 584e 413d 681d 123d 58a6 fc3d 00aa e8b9
00000010: a22b 933d 5c31 503d 1c01 f5bd 5cea ad3d
00000020: 90d5 48bc 9cdc acbd 5285 ac3d f456 cfbd
00000030: c410 703d a294 d2bd b4da 12bd 4c2d f0bd
00000040: 0a15 b73d d02a fd3c 10e5 d03d d043 1c3d
00000050: 50de 7dbd c0f9 993c 3c3e ad3d d8eb c5bd
00000060: 4ec7 aabd 643b 02bd 22ef 9fbd a006 babc
00000070: 986c f23d 6059 8e3d 548d cfbd da22 8abd
00000080: c870 cd3d b010 1dbc 3096 57bd d832 c83c
00000090: 8093 a2bc 6c80 2c3d 00ea 163b 828f 913d
000000a0: 30ec 8c3d e4c0 333d c497 1e3d 607b 03bd
000000b0: f6ee ecbd 602b 45bc 106e c2bd 08c8 ccbd
000000c0: b66b e1bd d8e3 ffbc a850 bdbd 5022 ad3c
000000d0: 341a 5d3d 8216 983d b216 f7bd 0466 d73d
000000e0: d857 183d e8be cf3d 8815 783d 0027 ba3c
000000f0: 488b c4bc 242c d63d de9e a6bd 7eaf c73d
