threshold_agent.pt (torch, 352818 bytes, 11 tensors)

0.weight f4 [64, 2]
0.547055 0.6065264 -0.15970962 0.64658844 -0.12077094 0.14740756 -0.35236245 0.42863154
0.62334496 -0.5187534 0.5927638 0.12973799 0.5180049 0.103412956 0.34095848 -0.09983712
0.5489325 0.10737101 -0.300516 0.19811076 -0.28283203 -0.070473306 -0.28243154 0.47968814
-0.558169 -0.32598352 -0.1996691 -0.42516384 0.06673894 -0.6983946 0.63859457 -0.60066473
0.5699227 0.14351113 -0.21949619 0.4552646 0.107767776 0.5831405 0.09452939 -0.18413101
0.17905234 -0.24560888 0.27964175 0.6171491 0.3892604 -0.33005008 0.37823653 0.109433495
0.35909358 -0.43098515 -0.69997096 -0.27319816 -0.5584842 0.5823116 0.20266461 0.2876257
0.22135583 -0.004226726 0.5935633 -0.46838215 0.044522077 -0.4826288 0.21803778 -0.24351504
0.29316643 -0.10258516 0.6257503 -0.38641256 -0.42171705 -0.42174253 0.6719764 0.24776311
0.71415275 -0.55677 -0.7013623 -0.5532147 -0.423419 0.28996053 0.23607884 0.58243763
-0.3651679 -0.48204303 0.3751754 -0.28581572 0.42915994 -0.16779688 0.40449753 -0.5493993
-0.3328659 0.24740186 0.1494877 -0.18028305 0.44034958 0.4776585 -0.512775 -0.37750182
0.6474708 -0.2386008 -0.25068092 -0.6841927 -0.40118182 0.1844125 -0.09333327 -0.5132789
0.016586386 -0.48301154 -0.59990704 -0.38937727 -0.6188684 -0.4502418 0.6990168 0.14087626
0.21790181 -0.6595074 -0.4644092 -0.2353646 0.11057107 -0.62219834 -0.30467325 -0.4233226
0.0019595756 -0.2631167 -0.048999503 -0.47915655 -0.48535466 -0.41252735 -0.24204083 -0.5581059
00000000: cc0b 0c3f 5045 1b3f eb8a 23be d286 253f
00000010: c156 f7bd 02f2 163e da68 b4be 9875 db3e
00000020: 8993 1f3f 06cd 04bf 5ebf 173f 09da 043e
00000030: f89b 043f 2cca d33d 1c92 ae3e 6777 ccbd
00000040: d786 0c3f 55e5 db3d 3cdd 99be 8cdd 4a3e
00000050: 5ccf 90be 4f54 90bd de9a 90be af99 f53e
00000060: 2ae4 0ebf 50e7 a6be 0e76 4cbe 13af d9be
00000070: 6dae 883d fdc9 32bf ef7a 233f 2ac5 19bf
00000080: 74e6 113f 95f4 123e 9cc3 60be 7118 e93e
00000090: 5ab5 dc3d b248 153f a098 c13d d78c 3cbe
000000a0: 7f59 373e e580 7bbe 342d 8f3e 7cfd 1d3f
000000b0: 244d c73e 53fc a8be 38a8 c13e ab1e e03d
000000c0: 1ddb b73e 16aa dcbe 4c31 33bf a1e0 8bbe
000000d0: d2f8 0ebf 5f12 153f 5087 4f3e ad43 933e
000000e0: 1aab 623e 5980 8abb c4f3 173f c9cf efbe
000000f0: c85c 363d 1f1b f7be 4c45 5f3e 025c 79be
00000100: e919 963e 2b18 d2bd 2c31 203f ded7 c5be
00000110: 4ceb d7be a3ee d7be a506 2c3f 9db5 7d3e
00000120: b7d2 363f 7b88 0ebf 7b8c 33bf 7b9f 0dbf
00000130: 60ca d8be b575 943e a7be 713e a21a 153f
00000140: 49f7 babe 58ce f6be fd16 c03e 7056 92be
00000150: daba db3e f2d2 2bbe 4d1a cf3e 6fa5 0cbf
00000160: 666d aabe ea56 7d3e 4e13 193e 1f9c 38be
00000170: 8075 e13e a88f f43e 3945 03bf eb47 c1be
00000180: a5c0 253f c553 74be 4059 80be 4127 2fbf
00000190: b467 cdbe a1d6 3c3e 8325 bfbd 3f66 03bf
000001a0: 2ce0 873c 4a4d f7be 8293 19bf 755c c7be
000001b0: 296e 1ebf 1886 e6be c4f2 323f de41 103e
000001c0: a721 5f3e 7ad5 28bf 0bc7 edbe 6b03 71be
000001d0: 1673 e23d 6448 1fbf 22fe 9bbe bdbd d8be
000001e0: 396c 003b 3bb7 86be b4b3 48bd 0254 f5be
000001f0: 6880 f8be c936 d3be 8dd9 77be 07e0 0ebf

0.bias f4 [64]
0.61546034 -0.15238942 0.66497785 0.22532357 -0.59877586 0.48691165 -0.17714281 -0.27105245
-0.5685689 -0.6589512 0.2387102 -0.12732473 0.27529302 -0.5802967 0.5249767 -0.51905435
-0.08814926 0.15904915 0.37838733 0.5947022 0.62792516 -0.5545906 0.15702924 -0.34829676
-0.07748816 -0.5292624 0.62317425 -0.5351393 0.3748607 0.28310797 0.22977854 -0.3822946
0.72738713 0.19008242 0.09096225 -0.57317936 0.32552603 -0.106080584 -0.25779104 0.584413
0.1576486 -0.3912255 -0.35789427 -0.033768393 0.42751387 -0.18068969 -0.38303754 -0.24214368
-0.52826166 0.25217724 0.5444646 -0.6656988 0.16422604 0.36528555 0.12821923 -0.2774195
0.36906883 0.37159392 0.26440647 -0.124253795 -0.18724276 0.07564693 -0.12491331 -0.21071856
00000000: cf8e 1d3f f90b 1cbe fd3b 2a3f 39bb 663e
00000010: 6049 19bf 7c4c f93e ed64 35be 63c7 8abe
00000020: bb8d 11bf 07b1 28bf 7270 743e 6a61 02be
00000030: 35f3 8c3e 538e 14bf df64 063f bfe0 04bf
00000040: 9987 b4bd c8dd 223e fcbb c13e 673e 183f
00000050: b4bf 203f a6f9 0dbf 46cc 203e f453 b2be
00000060: 1db2 9ebd be7d 07bf 5988 1f3f e4fe 08bf
00000070: beed bf3e 87f3 903e 114b 6b3e 1ebc c3be
00000080: 0b36 3a3f f7a4 423e 6b4a ba3d e2bb 12bf
00000090: 59ab a63e c740 d9bd 30fd 83be 179c 153f
000000a0: a26e 213e b54e c8be eb3d b7be ba50 0abd
000000b0: 19e3 da3e b806 39be 7f1d c4be 83f4 77be
000000c0: 283c 07bf 601d 813e 0862 0b3f 3d6b 2abf
000000d0: df2a 283e b506 bb3e e74b 033e ee09 8ebe
000000e0: 97f6 bc3e 8f41 be3e 4960 873e c678 febd
000000f0: 91bc 3fbe c7ec 9a3d 8dd2 ffbd 9bc6 57be

2.weight f4 [64, 64]
0.11097174 0.14739743 0.013446426 0.009228861 0.0018240362 0.013753955 0.0620104 0.035029203
-0.0897148 -0.0334889 0.054613076 0.09004721 -0.0062171966 -0.07536322 -0.076475635 -0.11197086
-0.0082127005 0.080171496 0.11376618 0.016396856 -0.14496663 -0.03428114 -0.035029907 0.15530872
0.018082187 -0.032371342 0.08645768 -0.012909471 -0.07091061 -0.020323249 -0.056837723 -0.025058344
-0.12349727 -0.028482007 0.09470433 0.08997158 -0.20485105 -0.12336749 -0.06562511 0.12520795
0.06001322 0.10518806 0.065483734 0.03163652 0.032642957 -0.095063254 -0.06720841 -0.11691858
0.051170245 -0.061371 0.004574414 -0.07193816 -0.022777945 -0.08797936 -0.08167696 0.07424021
-0.03714955 0.0771679 -0.040101096 -0.091695905 -0.022054866 -0.060593426 -0.038242698 -0.11899945
0.10518149 -0.054171637 0.10346305 0.09237174 0.08930409 -0.059511714 0.1114915 -0.059093952
0.053021155 0.12862544 -0.055923864 0.031093335 -0.028778821 -0.10437307 0.059987858 -0.12408973
0.105881445 0.12862986 0.15316562 -0.045657083 -0.10822357 0.056220297 0.05490998 -0.10612301
-0.028372958 -0.074931934 0.02646196 -0.04193085 -0.0035460286 -0.13992131 -0.118788004 0.10256344
0.122102946 -0.12150191 -0.014235258 -0.029625606 -0.22251128 -0.12164305 0.06675794 -0.032793082
-0.08035962 -0.009752899 -0.041626394 -0.040440097 0.0428807 -0.026514053 -0.013844767 -0.059850737
-0.101728424 0.1048134 -0.008802126 0.033122435 -0.04337074 0.01015766 0.116537556 0.0807739
-0.10832496 0.04961285 0.118655354 0.032885417 0.08380309 0.12323594 -0.019153625 0.025944307
-0.066704854 -0.021058612 0.12600069 0.076170035 -0.07909863 -0.066286966 -0.081718184 -0.12335971
-0.09985576 -0.031360723 0.1761698 0.023359893 -0.09507568 -0.10027799 0.06218441 -0.09298016
-0.0012897135 0.071478345 -0.04226344 0.048922833 0.050766755 -0.032355666 -0.07187523 -0.115970254
-0.101044625 -0.06693271 0.13777886 -0.06419906 -0.030074805 0.040353462 0.03445129 0.06848872
0.15774713 0.065757714 -0.12393762 0.0041316757 0.074637644 -0.011553183 -0.07796473 0.13844427
-0.04675348 -0.071168065 -0.11269438 0.0055835396 0.07755661 0.027670354 0.025734724 -0.09479843
-0.116735905 0.0022011697 0.14173315 0.07211517 -0.07277928 -0.016226068 -0.09214795 -0.056420498
0.022637293 0.06806731 0.10354616 -0.11476326 0.0835769 -0.08816151 0.046808407 0.10578066
-0.006278678 0.10569259 -0.11454037 -0.05577871 0.07290661 -0.03526744 -0.033621456 -0.05209896
0.08616327 0.0613129 0.04005626 -0.0782793 -0.1014687 0.013520077 0.037034854 -0.057713985
-0.04300838 0.07638743 0.0019235616 -0.002395198 -0.038794573 -0.12123255 -0.11753218 -0.06777297
-0.063540176 0.0389442 -0.04442257 -0.0569324 0.1111458 0.04354036 0.08911279 -0.060514092
-0.05909273 0.04594256 -0.08328439 -0.08974617 -0.006037459 -0.045720086 -0.101563 0.06611117
0.10052036 0.020277917 -0.02176416 -0.11578412 -0.053563535 0.031823203 0.050908126 -0.01580219
-0.049419105 0.06965326 -0.10758335 0.079002246 -0.048494354 0.001913175 -0.024701983 0.0071225194
-0.0377748 0.09089087 -0.0032496452 0.097574934 0.12018506 -0.06089887 -0.09118864 0.10028775
00000000: 2745 e33d 5aef 163e 664e 5c3c a634 173c
00000010: 8014 ef3a 4558 613c 9efe 7d3d c87a 0f3d
00000020: 65bc b7bd a82b 09bd f6b1 5f3d ac6a b83d
00000030: a0b9 cbbb 0858 9abd 429f 9cbd fa50 e5bd
00000040: 908e 06bc f430 a43d 3efe e83d b352 863c
00000050: 2272 14be 616a 0cbd 857b 0fbd 4009 1f3e
00000060: 1821 943c d097 04bd b910 b13d 3f82 53bc
00000070: 9539 91bd f17c a6bc acce 68bd 2847 cdbc
00000080: 23ec fcbd 1953 e9bc 58f4 c13d 0543 b83d
00000090: 79c4 51be 18a8 fcbd 7566 86bd 8336 003e
000000a0: 6cd0 753d d66c d73d 561c 863d 4c95 013d
000000b0: 9fb4 053d 86b0 c2bd 90a4 89bd 0273 efbd
000000c0: e497 513d 2860 7bbd f7e4 953b 5054 93bd
000000d0: d098 babc 862e b4bd 4046 a7bd 400b 983d
000000e0: 202a 18bd 340a 9e3d 0c41 24bd 10cb bbbd
000000f0: 68ac b4bc d030 78bd 60a4 1cbd fcb5 f3bd
00000100: 6569 d73d 14e3 5dbd 70e4 d33d 652d bd3d
00000110: 10e5 b63d 8ec2 73bd a855 e43d 800c 72bd
00000120: b62c 593d 63b6 033e 6c10 65bd 73b7 fe3c
00000130: 90c1 ebbc 8cc1 d5bd d4b5 753d c222 febd
00000140: 5fd8 d83d 8cb7 033e 73d7 1c3e ec02 3bbd
00000150: 52a4 ddbd 4147 663d 4ae9 603d 0557 d9bd
00000160: 686e e8bc ea75 99bd c1c6 d83c afbf 2bbd
00000170: 7d64 68bb 8847 0fbe 2047 f3bd c80c d23d
00000180: 1c11 fa3d fed5 f8bd 003b 69bc 66b1 f2bc
00000190: ffd9 63be fe1f f9bd 63b8 883d 0a52 06bd
000001a0: 9693 a4bd a0ca 1fbc 7080 2abd 84a4 25bd
000001b0: aca3 2f3d 0034 d9bc 29d5 62bc 0c26 75bd
000001c0: fe56 d0bd 68a8 d63d cb36 10bc 64ab 073d
000001d0: 84a5 31bd 506c 263c 3eab ee3d c96c a53d
000001e0: 7ad9 ddbd d836 4b3d 9401 f33d dcb2 063d
000001f0: f4a0 ab3d 2063 fc3d 10e8 9cbc 2889 d43c
00000200: 8e9c 88bd 1c83 acbc 5306 013e 09ff 9b3d
00000210: 76fe a1bd 76c1 87bd dd5b a7bd 04a4 fcbd
00000220: 2d81 ccbd 1a74 00bd db65 343e 3f5d bf3c
00000230: 0ab7 c2bd 8c5e cdbd 14b5 7e3d 626c bebd
00000240: 9b0b a9ba 3d63 923d 6e1c 2dbd 4f63 483d
00000250: cdf0 4f3d 6087 04bd 5233 93bd d081 edbd
00000260: 7cf0 cebd 0414 89bd e715 0d3e cc7a 83bd
00000270: 705f f6bc ac49 253d cc1c 0d3d d043 8c3d
00000280: 7788 213e fbab 863d 02d3 fdbd 0263 873b
00000290: 9fdb 983d 9049 3dbc f9ab 9fbd 56c4 0d3e
000002a0: 9480 3fbd 90c0 91bd 50cc e6bd 20f6 b63b
000002b0: 00d6 9e3d f0ac e23c a1d1 d23c ae25 c2bd
000002c0: 3c13 efbd 8041 103b 7f22 113e 1eb1 933d
000002d0: 4e0d 95bd 88ec 84bc 10b8 bcbd 2e19 67bd
000002e0: d871 b93c e066 8b3d 0210 d43d 0009 ebbd
000002f0: 5e2a ab3d 068e b4bd 2cba 3f3d 88a3 d83d
00000300: 5ebd cdbb 5b75 d83d 2494 eabd 3778 64bd
00000310: 1050 953d 9774 10bd a7b6 09bd b865 55bd
00000320: 5e76 b03d 3c23 7b3d 0812 243d e650 a0bd
00000330: d2ce cfbd 5083 5d3c dcb1 173d 8065 6cbd
00000340: 8e29 30bd 0371 9c3d 0420 fc3a c1f8 1cbb
00000350: 0fe7 1ebd c548 f8bd b6b4 f0bd 8ecc 8abd
00000360: 5a21 82bd f483 1f3d 71f4 35bd f331 69bd
00000370: 69a0 e33d 6057 323d c480 b63d a0dd 77bd
00000380: 380b 72bd 442e 3c3d 0291 aabd d7cc b7bd
00000390: e0d5 c5bb fc44 3bbd 4300 d0bd 4b65 873d
000003a0: 9edd cd3d e01d a63c c04a b2bc 3a20 edbd
000003b0: 7065 5bbd 0c59 023d 0a85 503d 9873 81bc
000003c0: b06b 4abd 5ea6 8e3d a954 dcbd eecb a13d
000003d0: 04a2 46bd 80c3 fa3a d05b cabc 0664 e93b
000003e0: c0b9 1abd fe24 ba3d 00f8 54bb 5ed5 c73d
000003f0: 9623 f63d 1871 79bd 1cc1 babd aa63 cd3d

2.bias f4 [64]
0.04170842 0.10612358 0.011926398 0.07371304 0.031322632 0.02783815 0.024089158 -0.10654685
-0.023803225 0.052141428 -0.118195616 -0.0663975 0.07831518 -0.01350799 -0.020220248 -0.015003784
-0.087353356 0.094961114 -0.0123940855 -0.045513734 0.052127447 -0.023791231 -0.053632837 0.013772759
0.017984359 0.060652073 -0.10674989 -0.0360367 -0.052537233 0.10968318 0.01632348 -0.06909705
0.048445582 -0.011938998 0.10274958 0.054703843 -0.06348343 0.15977985 -0.022356927 -0.037942864
0.09730017 0.079586074 0.042989 -0.114789054 -0.004762267 0.12258717 -0.04410205 -0.061582677
-0.099635854 -0.06900166 -0.06834315 0.029853374 0.04994069 0.11006205 0.10041293 0.041421607
0.084555484 0.0714484 -0.10781562 0.07851025 -0.053660423 0.11670828 -0.0336362 0.006743788
00000000: 73d6 2a3d 5257 d93d f066 433c ddf6 963d
00000010: 294c 003d d50c e43c a056 c53c 3c35 dabd
00000020: fbfe c2bc 4092 553d 8b10 f2bd 6afb 87bd
00000030: b663 a03d 9e50 5dbc efa4 a5bc 6ed2 75bc
00000040: 51e6 b2bd f97a c23d 9010 4bbc 9c6c 3abd
00000050: 9783 553d d4e5 c2bc 1bae 5bbd 23a7 613c
00000060: ef53 933c 4f6e 783d b09f dabd 389b 13bd
00000070: 4831 57bd 93a1 e03d d2b8 853c c182 8dbd
00000080: e06e 463d c99b 43bc 5f6e d23d 2311 603d
00000090: 9a03 82bd 549d 233e e025 b7bc fa69 1bbd
000000a0: 5045 c73d 06fe a23d 3c15 303d 8616 ebbd
000000b0: cb0c 9cbb fb0e fb3d 5aa4 34bd 1e3e 7cbd
000000c0: e20d ccbd be50 8dbd 7ef7 8bbd 108f f43c
000000d0: 9c8e 4c3d 3668 e13d 4ba5 cd3d b4a9 293d
000000e0: 6d2b ad3d 8a53 923d 70ce dcbd fbc9 a03d
000000f0: 08cb 5bbd c004 ef3d 1dc6 09bd fefa dc3b

4.weight f4 [4, 64]
0.0067897104 0.0625354 0.037768446 -0.08280797 0.070587225 0.06761295 -0.065095544 -0.072973795
-0.07638806 -0.05050285 -0.010708033 0.009346306 -0.0008816421 -0.020550903 0.07504122 0.007696527
-0.062723204 -0.041302826 -0.07349186 -0.044098333 -0.10786957 0.025554284 -0.09251233 0.035221823
0.089727975 -0.08294814 -0.06596643 -0.09876707 0.033358827 0.018203732 -0.05355238 0.06851858
0.05186835 -0.104012325 0.0024576548 -0.029513966 -0.014967447 0.07457272 -0.013445035 -0.07734361
0.09222056 -0.10222567 -0.03810236 0.05295608 0.10820865 0.13644888 -0.029324664 0.020233082
-0.109778926 -0.02432254 -0.03888206 0.035484225 -0.08190031 0.035067372 0.071540914 0.10077587
-0.038005847 0.114200786 -0.11810075 -0.023149012 0.051990792 0.023105 0.053584006 -0.06873977
0.062157553 -0.137386 -0.13847615 -0.016353127 -0.116253525 -0.1223332 -0.11096656 0.09238612
0.012721569 -0.049384493 -0.0056819436 -0.10895233 -0.11805633 -0.1026087 -0.12939888 0.06727285
-0.059661444 -0.04203696 -0.1076432 0.02070263 -0.03769595 -0.11085584 0.06499425 0.09243275
-0.10110469 0.07338052 -0.02029711 -0.0011801273 0.05320607 -0.016822789 0.08536922 0.07378973
-0.08114149 -0.06722344 -0.13346672 0.003999721 -0.10401087 -0.16065966 -0.08012089 -0.13296351
-0.12209604 0.090236925 0.07640928 0.08773799 -0.06692527 -0.047608163 -0.043884154 -0.008191456
-0.08972068 0.018325254 -0.08011235 0.019752517 0.11449969 0.029124696 0.07347789 -0.096263565
-0.14464876 -0.07718481 -0.013868362 -0.07070516 -0.09278995 -0.19618179 -0.08919785 0.014504107
-0.059828646 -0.15192139 0.05975873 0.084814675 -0.09545138 -0.02762139 0.08300112 -0.11055673
-0.14562742 0.024970312 -0.05208565 0.039804757 -0.051981866 -0.012785781 0.058828462 -0.049103037
-0.07442651 -0.110632405 -0.01928854 0.079208195 -0.15167859 -0.044389684 0.07527462 -0.052275956
-0.084046446 -0.04871579 -0.050644636 0.014960781 -0.120350495 0.04178412 -0.063547574 -0.057533354
-0.00843364 0.060938716 -0.06802903 -0.112068355 -0.13123855 -0.10048468 -0.060858563 0.08929041
-0.13354836 -0.098750666 -0.11819605 -0.08783235 -0.04303204 -0.09134516 0.0012832965 0.018449312
-0.02126731 0.053932488 0.028683454 0.12075098 -0.0063817054 0.100305535 0.061308526 0.011152726
0.10001125 -0.08371273 -0.08371821 0.018099517 0.020700289 0.10649649 -0.030287646 -0.036217675
0.12983115 0.06052147 0.21039398 -0.055899467 -0.043229964 0.04692558 0.06666805 -0.1014645
0.004568422 0.12742536 0.068879955 0.088372335 -0.04234186 -0.040536724 -0.06927539 -0.055727318
-0.053897463 0.070252284 0.033598185 -0.07997805 0.16141397 0.11654824 0.052746776 -0.046405684
0.12862611 -0.07632887 0.09111588 -0.06792675 0.053092003 -0.051199842 0.12311609 -0.087398306
-0.02437234 -0.025392845 -0.0651166 -0.026688106 0.018083226 0.14298011 0.088725746 -0.029617239
0.17910016 -0.021608867 -0.055932395 0.029026125 0.010025804 0.04021693 0.11547932 0.061039634
-0.10459618 -0.04270734 -0.024833053 -0.11382456 0.03864853 0.11682933 0.088790365 0.028259013
0.10681092 -0.05853671 -0.01388669 0.16649115 -0.031144274 0.0907427 -0.040575173 -0.0236167
00000000: 387c de3b 8f12 803d 16b3 1a3d 3a97 a9bd
00000010: 0990 903d a978 8a3d d050 85bd 4973 95bd
00000020: 5871 9cbd 14dc 4ebd bf70 2fbc 4021 193c
00000030: 001e 67ba 5e5a a8bc 36af 993d 2633 fc3b
00000040: 0675 80bd 272d 29bd e682 96bd 74a0 34bd
00000050: b9ea dcbd 3857 d13c 1b77 bdbd c244 103d
00000060: 4dc3 b73d b7e0 a9bd 6819 87bd 6446 cabd
00000070: 44a3 083d fe1f 953c be59 5bbd 7853 8c3d
00000080: e873 543d 6a04 d5bd 9b10 213b 46c7 f1bc
00000090: 063a 75bc 95b9 983d 9048 5cbc 5466 9ebd
000000a0: 22de bc3d b15b d1bd 3811 1cbd 79e8 583d
000000b0: 7f9c dd3d 41b9 0b3e 473a f0bc d9bf a53c
000000c0: c6d3 e0bd 1040 c7bc cc42 1fbd e857 113d
000000d0: 5abb a7bd cea2 0f3d 0b84 923d 9463 ce3d
000000e0: 05ac 1bbd 1ae2 e93d cede f1bd ffa2 bdbc
000000f0: 4cf4 543d b246 bd3c e77a 5b3d 70c7 8cbd
00000100: eb98 7e3d eaae 0cbe b1cc 0dbe fef6 85bc
00000110: 5416 eebd d489 fabd 7042 e3bd ef34 bd3d
00000120: 216e 503c 6547 4abd 992f babb 6622 dfbd
00000130: 84c7 f1bd 8324 d2bd 2481 04be 59c6 893d
00000140: 8f5f 74bd f32e 2cbd 0a74 dcbd 9098 a93c
00000150: 1267 1abd 6308 e3bd b51b 853d 624d bd3d
00000160: fa0f cfbd 8748 963d 2046 a6bc 80ae 9aba
00000170: 9cee 593d f2cf 89bc 0fd6 ae3d 121f 973d
00000180: 822d a6bd 71ac 89bd 80ab 08be 1710 833b
00000190: a703 d5bd f783 24be 6c16 a4bd 9627 08be
000001a0: 7d0d fabd 23ce b83d 787c 9c3d faaf b33d
000001b0: 1e10 89bd c700 43bd dfbf 33bd 7535 06bc
000001c0: 7abf b7bd d81e 963c f211 a4bd 08d0 a13c
000001d0: d07e ea3d ea96 ee3c 937b 963d d525 c5bd
000001e0: ce1e 14be 1213 9ebd 2038 63bc decd 90bd
000001f0: a808 bebd e1e3 48be 5dad b6bd a2a2 6d3c
00000200: e20e 75bd 4891 1bbe 92c5 743d 51b3 ad3d
00000210: 037c c3bd 4146 e2bc 7efc a93d 916b e2bd
00000220: 5b1f 15be 8a8e cc3c c357 55bd 500a 233d
00000230: f0ea 54bd 747b 51bc 1df6 703d 4420 49bd
00000240: ed6c 98bd 3e93 e2bd 0003 9ebc e837 a23d
00000250: a251 1bbe f5d1 35bd 9429 9a3d 501f 56bd
00000260: 8b20 acbd 358a 47bd c070 4fbd 101e 753c
00000270: 527a f6bd d325 2b3d 3b25 82bd 18a8 6bbd
00000280: 402d 0abc e09a 793d ce52 8bbd 1884 e5bd
00000290: 6663 06be e9ca cdbd d446 79bd e4dd b63d
000002a0: e7c0 08be ca3d cabd c510 f2bd 72e1 b3bd
000002b0: 5d42 30bd 2c13 bbbd 4934 a83a 0323 973c
000002c0: c838 aebc 50e8 5c3d 90f9 ea3c 4a4c f73d
000002d0: a01d d1bb fd6c cd3d a61e 7b3d ecb9 363c
000002e0: b3d2 cc3d 9471 abbd 7474 abbd 7045 943c
000002f0: a793 a93c d51a da3d cc1d f8bc fc58 14bd
00000300: 75f2 043e 5ce5 773d 8571 573e d7f6 64bd
00000310: e711 31bd 0935 403d 4289 883d 9fcc cfbd
00000320: b4b2 953b cb7b 023e ef10 8d3d 8efc b43d
00000330: a86e 2dbd d609 26bd 41e0 8dbd 5442 64bd
00000340: 96c3 5cbd 6ee0 8f3d 409e 093d 88cb a3bd
00000350: b449 253e d8b0 ee3d 010d 583d e313 3ebd
00000360: 90b6 033e 5052 9cbd f69a ba3d 2e1d 8bbd
00000370: 0077 593d edb6 51bd 4a24 fc3d e2fd b2bd
00000380: 80a8 c7bc a804 d0bc da5b 85bd 04a1 dabc
00000390: 4623 943c 6169 123e d8b5 b53d da9f f2bc
000003a0: 0866 373e 1405 b1bc 5e19 65bd 32c8 ed3c
000003b0: 4543 243c 82ba 243d 6c80 ec3d b204 7a3d
000003c0: 8636 d6bd e4ed 2ebd b06e cbbc da1c e9bd
000003d0: ec4d 1e3d 3744 ef3d b9d7 b53d 727f e73c
000003e0: afbf da3d 30c4 6fbd 0085 63bc a87c 2a3e
000003f0: 4722 ffbc 4fd7 b93d 2732 26bd cf77 c1bc

4.bias f4 [4]
0.03612036 -0.16691643 0.020483602 -0.035982653
00000000: f1f2 133d 24ec 2abe 3acd a73c 8c62 13bd

0.weight f4 [64, 2]
-0.015575892 0.42219192 0.7204597 -0.0017161036 -0.5053988 -0.5805863 -0.17377298 -0.36084226
0.56208706 -0.50407445 0.5024808 0.34834033 -0.24948199 0.7068799 0.74144554 0.1774875
-0.47926143 -0.20811962 0.49993813 0.5697884 -0.23861885 -0.29386166 -0.43655515 0.36796796
0.93647367 0.46298406 -0.11810447 0.5140769 0.048463218 0.2896441 0.4134562 -0.5765004
0.45568755 0.43689492 -0.17672406 0.60824054 0.79265136 0.585769 -0.006378841 -0.3783294
-0.13820347 0.26334706 -0.09170917 0.690266 0.8494275 -0.14262103 -0.5539211 0.46993336
0.88991684 -0.14754562 -0.370065 -0.1654112 0.10130737 -0.5246478 0.72608995 0.40918434
-0.27034935 -0.2619441 -0.08752872 0.5258443 0.48302808 0.38696936 -0.08013526 0.37466154
0.9914217 0.46764085 -0.082908005 0.20973857 -0.012616721 -0.12312078 -0.45543143 -0.020688117
0.036889028 -0.42884433 0.7052049 0.62707233 -0.6180643 0.39265096 -0.488472 -0.14054288
0.62621593 -0.11313556 0.47312963 -0.1519345 0.91916466 -0.15311627 0.4147585 0.020814901
0.70476365 0.36186826 0.7479424 0.21302937 0.7366977 -0.13936739 0.48433766 0.70428455
0.018821381 -0.12903142 0.7824521 0.52369887 -0.4129816 0.29839858 -0.69349796 -0.38390434
0.52270377 0.30979562 0.09724383 0.5436744 0.948138 0.5203863 -0.64944744 -0.2572014
0.35261142 0.65472496 -0.0775401 0.34865704 0.37217993 -0.36995777 -0.15472941 0.72102237
0.27622682 0.65558475 -0.68949413 -0.26990184 0.6203616 0.0721388 0.23817132 -0.5923575
00000000: 0732 7fbc 8a29 d83e 0c70 383f e2ee e0ba
00000010: d161 01bf 4ea1 14bf 8bf1 31be 51c0 b8be
00000020: f0e4 0f3f 060b 01bf 95a2 003f aa59 b23e
00000030: 3578 7fbe 15f6 343f 60cf 3d3f 48bf 353e
00000040: c161 f5be 4f1d 55be e4f7 ff3e a7dd 113f
00000050: 8058 74be 0975 96be 2884 dfbe 4c66 bc3e
00000060: bdbc 6f3f 3f0c ed3e c2e0 f1bd 8b9a 033f
00000070: 5e81 463d 3b4c 943e 88b0 d33e 8895 13bf
00000080: e14f e93e b1b0 df3e 27f7 34be a7b5 1b3f
00000090: 33eb 4a3f f5f4 153f 9905 d1bb 64b4 c1be
000000a0: 3685 0dbe 6dd5 863e 04d2 bbbd 46b5 303f
000000b0: 1574 593f 3f0b 12be c6cd 0dbf 1b9b f03e
000000c0: 97d1 633f 3316 17be 2979 bdbe 8e61 29be
000000d0: 3d7a cf3d 514f 06bf 08e1 393f 9c80 d13e
000000e0: 3b6b 8abe 891d 86be 4242 b3bd bb9d 063f
000000f0: 754f f73e d920 c63e f51d a4bd a3d3 bf3e
00000100: d0cd 7d3f 9f6e ef3e accb a9bd b5c5 563e
00000110: 5db6 4ebc bf26 fcbd 4f2e e9be 207a a9bc
00000120: f318 173d 7c91 dbbe 4f88 343f d087 203f
00000130: 7639 1ebf 8c09 c93e 0119 fabe 79ea 0fbe
00000140: b04f 203f 9eb3 e7bd 0c3e f23e b894 1bbe
00000150: 604e 6b3f 83ca 1cbe 3a5b d43e 0384 aa3c
00000160: 646b 343f cc46 b93e 2779 3f3f 5f24 5a3e
00000170: 3898 3c3f 53b6 0ebe 1bfb f73e fe4b 343f
00000180: 4c2f 9a3c d020 04be c84e 483f 2111 063f
00000190: 5372 d3be b3c7 983e 1589 31bf 1c8f c4be
000001a0: eacf 053f 889d 9e3e c627 c73d 3f2e 0b3f
000001b0: 2cb9 723f 0938 053f 3042 26bf e7af 83be
000001c0: 7c89 b43e 0e9c 273f 58cd 9ebd 2d83 b23e
000001d0: 5e8e be3e 1b6b bdbe 6371 1ebe ec94 383f
000001e0: 9a6d 8d3e 67d4 273f b082 30bf 9330 8abe
000001f0: 05d0 1e3f 82bd 933d 2fe3 733e bea4 17bf

0.bias f4 [64]
1.0033802 -0.2956094 -0.035754435 -0.46315238 -0.31372452 -0.629457 -0.7521989 0.16815722
-0.3118973 0.83432 -0.0034211439 0.8464833 0.1624149 0.43501246 0.98529077 -0.5471594
-0.06425456 0.8927436 0.10691506 -0.19043371 0.3325465 -0.37315956 0.35042593 -0.3646252
0.52984726 -0.15010145 -0.2372795 0.052844763 0.18371229 0.64105576 -0.6791508 -0.6644383
-0.43424052 0.64189273 0.8392344 -0.67938924 0.18381985 0.4157312 -0.52203864 0.15277179
0.8747265 0.99922687 0.5961807 0.18412857 -0.26846588 0.06629162 0.33384264 0.219733
0.81191105 -0.42512003 0.33523682 -0.2248944 0.34137583 0.97823507 0.2950916 -0.12263915
0.056866083 -0.7962794 -0.640646 0.59309644 -0.17770214 0.40145767 -0.08166046 0.25510594
00000000: c36e 803f 1e5a 97be 3e73 12bd 4f22 edbe
00000010: 80a0 a0be 1824 21bf 1b90 40bf 6831 2c3e
00000020: 01b1 9fbe ff95 553f 4535 60bb 21b3 583f
00000030: 1750 263e f4b9 de3e 043c 7c3f a312 0cbf
00000040: e597 83bd d88a 643f 48f6 da3d 0e01 43be
00000050: 8943 aa3e c50e bfbe 076b b33e 27b0 babe
00000060: 12a4 073f 32b4 19be 66f9 72be c073 583d
00000070: 131f 3c3e 3b1c 243f d4dc 2dbf a118 2abf
00000080: c654 debe 1553 243f 11d8 563f 74ec 2dbf
00000090: 453b 3c3e b8da d43e 53a4 05bf 3570 1c3e
000000a0: 13ee 5f3f 55cd 7f3f 4c9f 183f 338c 3c3e
000000b0: 5c74 89be e7c3 873d 6ced aa3e b001 613e
000000c0: 67d9 4f3f 55a9 d9be 29a4 ab3e b84a 66be
000000d0: d0c8 ae3e 9d6d 7a3f 3f16 973e 3c2a fbbd
000000e0: 69ec 683d f7d8 4bbf 6001 24bf 2bd5 173f
000000f0: 8df7 35be dc8b cd3e 993d a7bd 3f9d 823e

2.weight f4 [64, 64]
0.16294816 -0.063182004 0.042919874 0.10563445 -0.039279386 -0.041021936 -0.20446903 -0.24150978
-0.04100178 0.034584515 0.07012348 0.058399376 0.08328365 -0.085551195 0.037291307 0.11158797
-0.16420597 0.110740826 0.07691704 0.08461644 -0.06349977 -0.08173781 0.13146594 -0.1698453
0.23414363 -0.08258721 0.07211414 -0.014856196 -0.03577037 -0.012409983 -0.007313885 -0.14794137
-0.052515812 0.18814702 0.23024811 -0.11938533 0.11659588 -0.082842946 -0.010592165 -0.07979958
0.26870993 0.29835248 0.2778303 0.16209812 -0.3165101 -0.11803338 0.23681884 0.054154173
0.3802296 -0.06337878 0.026124142 0.11242859 -0.026880842 0.012463779 -0.030624717 0.04917343
-0.10356032 -0.106463 0.034271166 0.008781381 0.011997616 0.019909322 -0.057822596 -0.03485021
-0.1123288 0.07639499 0.051841542 0.10500932 0.04776162 0.002498135 -0.09022547 -0.11851089
0.025086448 0.1019755 -0.009717405 -0.04077947 0.06253505 -0.060518086 0.04410793 -0.101435006
-0.1132838 -0.07292479 -0.021402448 0.04214987 0.06324652 -0.0791187 -0.025672302 0.041158214
-0.027566448 0.0018784404 0.08092573 -0.036060438 0.06444526 0.10156757 0.041670516 -0.022211105
-0.07914765 -0.082618415 -0.024287537 0.039064556 0.06836471 -0.006030038 0.10073069 -0.04950905
0.024926588 -0.063996345 0.033588752 0.10668367 0.043799907 0.008375347 -0.04600361 -0.10255669
-0.085538715 -0.10722394 0.08884314 -0.05214697 -0.018703222 -0.11201331 -0.034854963 0.106320634
0.022981271 -0.022320434 0.065151095 0.09636913 0.09727086 -0.09248707 0.008974612 -0.10264626
-0.03275914 0.014348363 -0.0995899 -0.061302125 0.0599463 -0.0017292678 -0.21081702 -0.44233224
-0.049016684 0.12342299 0.0728464 0.11312198 0.0535489 -0.060195416 0.17485735 -0.0035125464
-0.06654799 -0.017506277 0.013182686 0.0558203 -0.031825732 0.039344672 0.1808354 -0.061276894
0.35359877 0.070427 -0.045517683 -0.12819524 0.024124429 0.00044276123 -0.109137654 -0.05000985
-0.098497525 -0.017159661 0.15301262 0.118177205 -0.013761252 -0.06675577 -0.21287078 0.12003486
0.28862754 0.16275007 0.17774035 0.14989483 -0.13500252 -0.08164109 0.12590857 0.037907667
0.21671121 -0.067439534 -0.14577137 -0.11145119 -0.12329174 0.14992903 0.097043134 -0.106660455
0.037581228 -0.21965338 -0.116169095 0.03961088 -0.00855938 0.07085347 -0.120328754 0.11996347
-0.0022471217 -0.023042332 -0.03961061 0.006173536 0.086210996 -0.24614386 -0.06895143 -0.37538108
0.08085255 0.061104696 0.062017143 0.19438212 -0.06697669 -0.15584946 0.26602706 -0.068819895
-0.07762843 0.12007475 -0.06745004 0.097691774 0.06880722 -0.1264196 0.3270839 -0.11592316
0.41025808 0.086541146 -0.08325522 -0.07969382 0.06741992 0.114256896 -0.10917857 -0.11118746
-0.20990394 0.10883282 0.21667825 0.102905124 0.0984299 -0.07782226 -0.26145256 0.09747346
0.16910781 0.36924696 0.21142825 0.03429776 -0.27777106 0.05017239 0.27437752 0.06066554
0.3832774 -0.049506634 0.051527455 0.0920593 0.12936914 0.041707054 -0.038775157 0.04027608
0.029224109 -0.22305675 -0.0983268 -0.117552556 -0.16816732 0.019945651 -0.14975339 -0.033334956
00000000: e2db 263e 9165 81bd c0cc 2f3d e056 d83d
00000010: 6ce3 20bd 9e06 28bd 5460 51be 574e 77be
00000020: 7cf1 27bd 7ea8 0d3d e69c 8f3d 2f34 6f3d
00000030: 9e90 aa3d 7735 afbd c5be 183d 3c88 e43d
00000040: 9c25 28be 16cc e23d ae86 9d3d 624b ad3d
00000050: 2b0c 82bd 2766 a7bd 029f 063e edeb 2dbe
00000060: 59c3 6f3e 7c23 a9bd 94b0 933d 6767 73bc
00000070: f483 12bd 3e53 4bbc 50a9 efbb f17d 17be
00000080: d21a 57bd 9da9 403e 29c6 6b3e 4c80 f4bd
00000090: d2c9 ee3d 90a9 a9bd c38a 2dbc f66d a3bd
000000a0: 5994 893e a8c1 983e c63f 8e3e 0dfd 253e
000000b0: 9d0d a2be 7cbb f1bd a380 723e c4d0 5d3d
000000c0: 74ad c23e bccc 81bd 4c02 d63c f640 e63d
000000d0: 3635 dcbc e134 4c3c b0e0 fabc 146a 493d
000000e0: 6f17 d4bd 4609 dabd ec5f 0c3d c8df 0f3c
000000f0: a691 443c e018 a33c 63d7 6cbd 18bf 0ebd
00000100: a40c e6bd fa74 9c3d cc57 543d 200f d73d
00000110: b0a1 433d c0b7 233b 22c8 b8bd d6b5 f2bd
00000120: 1882 cd3c 88d8 d03d c035 1fbc 6008 27bd
00000130: 6012 803d d0e1 77bd 84aa 343d 28bd cfbd
00000140: 5601 e8bd 9859 95bd 3054 afbc 58a5 2c3d
00000150: 6487 813d fc08 a2bd b84e d2bc 8495 283d
00000160: 08d3 e1bc 0036 f63a 64bc a53d 1cb4 13bd
00000170: e0fb 833d a802 d03d b4ae 2a3d 10f4 b5bc
00000180: 2a18 a2bd d833 a9bd a8f6 c6bc 2802 203d
00000190: cc02 8c3d a097 c5bb e44b ce3d 00ca 4abd
000001a0: d832 cc3c 8410 83bd 5c94 093d f87c da3d
000001b0: 8867 333d c038 093c 486e 3cbd 3e09 d2bd
000001c0: ec2e afbd 3a98 dbbd 64f3 b53d 1098 55bd
000001d0: 8037 99bc 3c67 e5bd 14c4 0ebd a2be d93d
000001e0: 3843 bc3c 58d9 b6bc f06d 853d 2e5d c53d
000001f0: f235 c73d dc69 bdbd 400a 133c 3438 d2bd
00000200: 732e 06bd 6515 6b3c caf5 cbbd f017 7bbd
00000210: 408a 753d 99a8 e2ba 6be0 57be 5f79 e2be
00000220: b8c5 48bd 31c5 fc3d 7e30 953d 7fac e73d
00000230: 1756 5b3d 788f 76bd ce0d 333e c032 66bb
00000240: 504a 88bd 5369 8fbc 31fc 573c d4a3 643d
00000250: b35b 02bd e127 213d ea2c 393e 7bfd 7abd
00000260: e60a b53e 083c 903d c070 3abd 9d45 03be
00000270: 98a0 c53c 6822 e839 9083 dfbd 21d7 4cbd
00000280: 12b9 c9bd 6b92 8cbc 57af 1c3e e406 f23d
00000290: e076 61bc 40b7 88bd ccfa 59be d6d4 f53d
000002a0: fdc6 933e f4a7 263e 9101 363e 087e 193e
000002b0: 1a3e 0abe 7233 a7bd 2dee 003e 1245 1b3d
000002c0: 8be9 5d3e bd1d 8abd 1745 15be 8640 e4bd
000002d0: 6180 fcbd ff86 193e 8dbe c63d cc70 dabd
000002e0: c6ee 193d d1ec 60be 10ea edbd 053f 223d
000002f0: a43c 0cbc a01b 913d ec6e f6bd 68af f53d
00000300: 7244 13bb 46c3 bcbc bc3e 22bd 604b ca3b
00000310: 648f b03d 230d 7cbe 6836 8dbd f331 c0be
00000320: 0696 a53d eb48 7a3d b005 7e3d 1b0c 473e
00000330: 132b 89bd 0097 1fbe b334 883e 72f1 8cbd
00000340: a8fb 9ebd c0e9 f53d 3f23 8abd a012 c83d
00000350: cdea 8c3d 2474 01be 8a77 a73e 1f69 edbd
00000360: 590d d23e 7c3c b13d b681 aabd 8336 a3bd
00000370: 7413 8a3d 85ff e93d 0499 dfbd 40b6 e3bd
00000380: 0ff1 56be bee3 de3d e7e0 5d3e ecbf d23d
00000390: 9e95 c93d 4761 9fbd 1cdd 85be 2aa0 c73d
000003a0: 992a 2d3e f00d bd3e a680 583e cf7b 0c3d
000003b0: 0238 8ebe 9081 4d3d 367b 8c3e 6e7c 783d
000003c0: ef3c c43e 78c7 4abd 740e 533d 9689 bc3d
000003d0: 5879 043e 04d5 2a3d b3d2 1ebd 88f8 243d
000003e0: 6667 ef3c fd68 64be 905f c9bd 65bf f0bd
000003f0: 0e34 2cbe 1065 a33c f458 19be 3c8a 08bd

2.bias f4 [64]
0.22909142 -0.05502422 0.09645258 0.19548272 0.12534347 0.25729033 0.06766399 0.1744601
0.061469488 -0.034085445 0.1563806 -0.15363961 0.13420501 0.06621375 0.066972114 0.09906276
-0.012611836 0.026951985 0.2062498 0.36732003 -0.09967309 0.2007045 -0.11985269 -0.002309365
-0.09731595 -0.110708944 -0.0014020436 0.3504632 0.32111862 0.30641294 -0.053150617 -0.015552338
-0.11237268 0.35015595 0.012043712 0.35237774 -0.12750319 -0.030483887 0.16754924 -0.09566079
0.14858381 0.26329803 0.32345885 0.056449533 -0.05096523 0.055139616 0.123117775 0.0061128438
-0.06208141 -0.09870401 0.078046806 0.22174203 -0.09806982 0.29127166 0.005113947 0.16662988
0.09304472 0.23079535 0.1750957 0.20901537 -0.050644916 0.32628673 0.049757153 0.31383452
00000000: f196 6a3e 1461 61bd ee88 c53d 9f2c 483e
00000010: 0a5a 003e 8fbb 833e 6b93 8a3d aba5 323e
00000020: 6ec7 7b3d 2e9d 0bbd 3c22 203e b453 1dbe
00000030: 0a6d 093e 139b 873d ad28 893d 6be1 ca3d
00000040: e0a1 4ebc 69ca dc3c 2633 533e 5f11 bc3e
00000050: 6821 ccbd 7b85 4d3e 5475 f5bd b758 17bb
00000060: 964d c7bd 5fbb e2bd c7c4 b7ba ea6f b33e
00000070: a969 a43e 28e2 9c3e 76b4 59bd 3ccf 7ebc
00000080: a623 e6bd a447 b33e fd52 453c db6a b43e
00000090: 3290 02be 58b9 f9bc 0792 2b3e cee9 c3bd
000000a0: 5b26 183e 00cf 863e 669c a53e a037 673d
000000b0: ebc0 50bd 14da 613d 2c25 fc3d 404e c83b
000000c0: 1449 7ebd 5425 cabd 01d7 9f3d 5810 633e
000000d0: d4d8 c8bd 8f21 953e e692 a73b 06a1 2a3e
000000e0: 3b8e be3d 9e55 6c3e 4a4c 333e 2008 563e
000000f0: 0b71 4fbd 0e0f a73e 28ce 4b3d ebae a03e

4.weight f4 [1, 64]
0.14950617 0.035672575 0.20456325 0.13525239 0.15924776 0.1970635 -0.10051286 0.37603644
0.00034834974 -0.07688407 0.19397113 -0.07266514 0.14776944 -0.08124652 -0.021537676 -0.099803016
0.0893956 0.04982634 0.27472085 0.22728308 -0.06197959 0.12738663 0.08459136 -0.08424597
-0.083387956 -0.0126718115 -0.054608483 -0.28267246 0.27275226 0.19604672 -0.08370981 -0.056273326
0.10031277 0.23072298 -0.027471155 0.18856885 -0.013863496 0.04211466 0.100386165 0.0710745
0.21001537 0.14202951 0.2085959 -0.03210008 -0.10756252 -0.012034267 -0.09493649 -0.099990904
-0.09588649 -0.031236574 -0.08336043 0.19912492 0.053980067 0.18505795 -0.1046173 0.25139344
0.33919168 0.235111 0.34734592 0.3266089 -0.015716411 0.28863573 -0.067910485 0.20922174
00000000: 2518 193e 681d 123d 0779 513e 9a7f 0a3e
00000010: d811 233e 04cb 493e b0d9 cdbd d987 c03e
00000020: b6a2 b639 6575 9dbd 5ea0 463e 76d1 94bd
00000030: df50 173e 9364 a6bd c86f b0bc 8665 ccbd
00000040: 0a15 b73d b416 4c3d 36a8 8c3e e5bc 683e
00000050: 50de 7dbd a471 023e 3c3e ad3d 2789 acbd
00000060: 4ec7 aabd 6e9d 4fbc 25ad 5fbd 72ba 90be
00000070: 2fa6 8b3e 79c0 483e 0d70 abbd dc7e 66bd
00000080: c870 cd3d a542 6c3e 300b e1bc 3118 413e
00000090: b723 63bc 6c80 2c3d 4397 cd3d 828f 913d
000000a0: 450e 573e 2f70 113e 2a9a 553e 607b 03bd
000000b0: bd49 dcbd 602b 45bc 106e c2bd 08c8 ccbd
000000c0: 2360 c4bd d8e3 ffbc e0b8 aabd 67e7 4b3e
000000d0: 341a 5d3d d57f 3d3e 9841 d6bd a4b6 803e
000000e0: 88aa ad3e f0c0 703e 53d7 b13e 4839 a73e
000000f0: b4bf 80bc 10c8 933e a714 8bbd 393e 563e
