threshold_agent.pt (torch, 77426 bytes, 11 tensors)

0.weight f4 [128, 2]
000000 85 2b 02 3f 27 62 be 3e 23 b2 26 bf d6 ca 10 3f
       0.50847656 0.3718426 -0.65115565 0.56559503
000010 3c bc fb 3e e8 f0 94 bc e3 2b b6 be a8 20 c0 38
       0.4916705 -0.01818128 -0.35580358 9.161356e-05
000020 44 7b ce be e4 c2 ff 3e 5a 47 bf 3e c7 d6 2b 3f
       -0.4032842 0.49953377 0.37359124 0.671246
000030 c2 e6 44 3e fb 4e 1e 3f e9 ab 17 3f d1 29 07 3f
       0.19228652 0.61839265 0.5924669 0.5279818
000040 57 11 c7 be 43 65 6f 3e 73 c4 dc 3e ff 6a 9f 3e
       -0.38880417 0.23378472 0.4311863 0.3113632
000050 c1 a3 5c 3e 16 58 92 bd d5 e5 b7 3e c1 74 a2 3c
       0.21546842 -0.07145707 0.35917535 0.019831063
000060 bc c6 00 3f 9b 55 93 3e 37 f8 11 3a bf 29 1b be
       0.50303245 0.2877625 0.0005568298 -0.15152644
000070 35 a1 98 3e 9f 6c 01 bf a6 9e b7 3e a7 a4 a5 3d
       0.2981049 -0.5055637 0.35863227 0.080880456
000080 47 fc 01 bf 3c 2c 99 3d 44 ee 83 3d 06 59 ce be
       -0.5077557 0.0747914 0.0644193 -0.40302294
000090 13 bc fa bd bb 84 2a 3f 99 f4 7c bd 15 20 14 3f
       -0.122429036 0.6660878 -0.061756704 0.57861453
0000a0 ab 48 e3 3b 72 9b 3f bd fd bf 52 3d bb 1c aa be
       0.006936153 -0.046779104 0.051452626 -0.33225045
0000b0 9a 19 b0 be de af c2 bb b5 ae ae 3d 45 8a 23 bd
       -0.34394532 -0.005941375 0.085294165 -0.039926786
0000c0 ef 7e 80 be bc fc c0 be fa 6f 71 be 06 3a 3f be
       -0.25096843 -0.3769282 -0.23577872 -0.18674478
0000d0 29 2f f5 ba 7a fd b1 be 73 59 b6 be 84 92 18 3d
       -0.0018706071 -0.347637 -0.3561512 0.037249103
0000e0 c1 ac 08 bf 13 c9 da bd d5 a9 04 3a 78 56 a1 be
       -0.533886 -0.10682883 0.00050607073 -0.31511283
0000f0 a0 c7 00 3f 41 df 37 3e 01 9f f6 3e 1e ef 65 3e
       0.50304604 0.17956258 0.48168185 0.22454497
000100 e1 1b 75 be 89 66 c0 bd 01 8e ef be ea 4d 56 3e
       -0.23936416 -0.09394557 -0.46788028 0.2092816
000110 29 dc 02 3f 68 4e c9 3d 2b 92 af be 0c 65 71 3e
       0.5111719 0.09829408 -0.34291205 0.23573703
000120 c7 bb ba 3e 61 56 29 3f 6c ad 0e bf cf e5 59 3e
       0.36471388 0.6614743 -0.5573337 0.21279071
000130 69 f0 15 3f d5 58 89 3e 8e 8f 59 be 2c b8 4a be
       0.5856996 0.26825586 -0.21246168 -0.19796818
000140 bd 77 8d 3a b7 29 97 be 67 fc 0e bf 85 2f 2c 3e
       0.0010793131 -0.29524013 -0.55853885 0.16815002
000150 96 61 d8 b7 6c cc d5 be 85 f3 07 b9 b1 4e 6b be
       -2.5794649e-05 -0.41757524 -0.00012965321 -0.22979237
000160 cc be 7b b9 4e 2c a0 be 14 98 4a 3d ff 86 b4 bc
       -0.00024008303 -0.31283802 0.04946144 -0.022037027
000170 2b e8 68 3e dd 35 63 be 09 1e 3e 3e dc dd c1 3e
       0.22744815 -0.22188516 0.18566145 0.37864578
000180 53 0e be 3e 90 ba 1c 3f a0 ec ee be 2b c4 06 bf
       0.37120304 0.6122217 -0.46664906 -0.5264308
000190 12 f0 0d 3e 94 bc 82 3c 06 35 26 bf f2 47 1d 3e
       0.13861111 0.015959062 -0.6492466 0.15359476
0001a0 16 b2 8e 3e d0 25 a5 be f9 d8 65 bd 56 61 29 bd
       0.27870244 -0.3225541 -0.056115124 -0.041352592
0001b0 ed 36 ad 3e fe b9 a5 be 84 fd aa bd 7e 76 01 3f
       0.33830968 -0.32368463 -0.083491355 0.5057143
0001c0 ca 20 a4 3e 7a ee f4 3d 79 22 b8 3e b9 a3 ee 3e
       0.32056266 0.11959548 0.359638 0.46609285
0001d0 17 73 84 3e fe 30 4b be 58 2a 90 3e c3 be 57 be
       0.25869057 -0.19842908 0.28157306 -0.21068864
0001e0 8a 10 6a 3e d4 50 12 3f f1 b0 e4 be 00 34 8d be
       0.22857872 0.57154584 -0.44666246 -0.27578735
0001f0 0a b3 26 be 60 cb bc 3e 9b d1 2a 3e 81 82 81 be
       -0.16279235 0.36873913 0.1668152 -0.2529488
000200 74 b4 f4 3e 6f 6e 4b bd 6c 85 69 bd b9 7f c6 3e
       0.47793925 -0.049665865 -0.057012007 0.3876932
000210 60 35 2f 3f 7f fd 96 3e 04 aa 84 3e 4b ce 8a 3e
       0.6844082 0.29490277 0.25910962 0.27110514
000220 67 7f d9 be 68 82 74 ba 96 c2 f9 be 4c 34 2c 3f
       -0.42480013 -0.00093272934 -0.4878127 0.672673
000230 bf 0a a7 3d 92 e7 c5 be 73 47 01 3f b0 73 71 3e
       0.081563465 -0.38653237 0.5049965 0.23579288
000240 7f cc 29 3f 49 51 59 3e b8 d4 ef bd df ec 20 3f
       0.6632766 0.21222414 -0.11710495 0.62861437
000250 74 e4 24 3f 66 4d da 3e f1 5c 59 3e 2e e4 25 3f
       0.6441109 0.42637175 0.2122686 0.648013
000260 56 2b 18 3f e2 27 ff 3e 1a 55 fd 3e fd e2 d9 3e
       0.59441125 0.49835116 0.4947899 0.4255599
000270 1b e3 0d 3f f6 cc 2b 3d 25 4f 96 3e 21 e3 19 3f
       0.5542466 0.041943513 0.29357257 0.60112196
000280 f9 75 a6 3e b7 2d 64 be b4 3b ec bc f6 5e 2d 3f
       0.3251188 -0.22283064 -0.028837062 0.67723024
000290 2b ff 8a 3e f3 a3 1a 3f 4a 22 23 3f 61 c1 35 3f
       0.27147803 0.60406417 0.63724196 0.709982
0002a0 55 7b 28 be e3 89 0d 3f e2 6b 90 3e 44 6e fd 3e
       -0.16453297 0.55288523 0.28207308 0.49498188
0002b0 6f f4 7b be 79 35 03 bc 9d ab 8b 3e 04 50 09 bf
       -0.24604963 -0.008008354 0.27279368 -0.5363772
0002c0 c9 4e 31 3e 0e 4d 31 be 6d 88 6a 3e 12 69 4a be
       0.1731521 -0.1731455 0.22903605 -0.19766644
0002d0 35 c6 b2 3b b8 7d c0 be 44 eb d7 3d 61 99 9b be
       0.005455757 -0.37595916 0.1054292 -0.30390456
0002e0 c5 e8 b3 3e a6 68 32 3f 77 26 20 bf 14 e1 6e 3e
       0.35138527 0.6969093 -0.6255869 0.23328048
0002f0 c0 9b 57 3e 75 3f 2f be ab 06 b6 be 8c 38 ba be
       0.21055508 -0.1711405 -0.35551962 -0.36371267
000300 05 4d 6a 3e 25 9d 84 3e c2 14 1a 3e 39 51 11 be
       0.22880943 0.25901142 0.15046981 -0.1419114
000310 bd 76 ab be 30 d9 d7 3e 76 c9 9e 3c ad 4c a1 bd
       -0.33489028 0.42157888 0.019383173 -0.07875953
000320 64 fe d9 3e f7 51 95 bd 91 8d 1f 3f 53 62 93 3a
       0.42576897 -0.07291024 0.6232539 0.0011244513
000330 03 46 ef 3e c3 18 d3 bd 88 d9 1c bd ca 4f 3b 3e
       0.46733102 -0.10307457 -0.03829339 0.18292156
000340 f3 d3 a3 3e b4 ed e1 3d d9 1b 6a be 7b 2f 44 3e
       0.31997642 0.110316664 -0.22862186 0.19158737
000350 85 55 d6 be fd 51 1b be 5c 6c 01 be eb 97 86 3c
       -0.4186212 -0.15167995 -0.12638992 0.016429862
000360 d3 86 62 3e 4c d3 98 3e 9e 98 a8 bd 65 b1 21 3f
       0.22121744 0.29848707 -0.082322344 0.6316131
000370 3f 34 eb 3e a2 8d 78 be f9 ad f3 3e 5f cc 60 3e
       0.45938298 -0.24272779 0.47593668 0.21952961
000380 75 c0 77 3a ba 70 1a be 4e 8f 1f be c5 f1 01 3e
       0.00094509806 -0.15082064 -0.1558201 0.12689884
000390 b8 41 66 bd 88 61 5b 3e 22 0b 0a 3e c0 7f 42 3e
       -0.056215018 0.21423924 0.1348081 0.18994045
0003a0 be a0 22 bf e5 ca 06 3f e4 3e 89 3e a0 e9 29 3f
       -0.63526523 0.5265334 0.26805794 0.6637211
0003b0 b0 bb d6 3e 40 b8 25 bd ae 45 ec be 41 d9 8a 3e
       0.4194007 -0.040458918 -0.4614691 0.27118877
0003c0 cd aa 09 be ab c3 95 be 1a 46 7c 3e 0a b4 37 3f
       -0.13444062 -0.29250845 0.24636117 0.7175909
0003d0 0f 4e d3 bd a4 7d fd 3e ea 68 9b be c0 1e 2c be
       -0.10317623 0.4950992 -0.3035348 -0.16808605
0003e0 40 84 63 bd f0 f5 a0 be bf 83 21 3f 6e 59 cf 3e
       -0.055546045 -0.31437635 0.63091654 0.40497917
0003f0 63 3b b7 be dc f5 b6 be 9a bc 7a be 5a 6f 16 3e
       -0.35787496 -0.3573445 -0.24486008 0.14690915

0.bias f4 [128]
000000 94 aa 8b 3e 1c ac 15 3f 2c 7c 9c be e5 71 83 39
       0.27278578 0.58465743 -0.30563486 0.00025071125
000010 0f a8 05 bf 14 d3 18 bf 32 48 ba be 24 dd eb be
       -0.5220956 -0.5969708 -0.36383206 -0.46067154
000020 cf a0 5a be bb 28 1a 3f ac 23 de be 4e e4 02 3e
       -0.21350406 0.602184 -0.4338659 0.12782404
000030 f3 e4 f7 be c5 73 69 37 fc e1 a5 3e 06 14 0c 3f
       -0.48416862 1.3914837e-05 0.32398975 0.54718053
000040 16 61 1a 3f 4b 49 f7 3e e6 d8 51 ba eb a5 d3 3e
       0.6030439 0.48298106 -0.00080050377 0.41337523
000050 d1 dc d1 be 62 1d 67 3d 54 e6 0a 3e 8a 54 ab bd
       -0.40988782 0.056424506 0.13564426 -0.08365734
000060 fa b8 38 39 45 45 22 3d 42 47 82 be 93 df 23 3f
       0.00017616517 0.03961684 -0.2544499 0.6401302
000070 70 16 08 bf 87 e0 0d 3e 21 99 ea 3d 83 d5 17 bf
       -0.53159237 0.13855182 0.11454988 -0.5931017
000080 40 88 c9 be 59 ce d2 be 59 5a 4a be e7 a2 34 3f
       -0.39361763 -0.41173056 -0.19761027 0.7056107
000090 38 0d 34 3f ef 56 2a bf bd 27 1a bf e6 7b d2 3e
       0.7033267 -0.665389 -0.60216886 0.41110152
0000a0 ce be 3d bd c1 cb b8 be e9 b3 11 b9 85 4b ca b8
       -0.046324544 -0.36092952 -0.000138953 -9.646177e-05
0000b0 87 b1 a0 3e ef 2d b1 3b 61 28 b0 bc 2c e9 41 bd
       0.31385443 0.005407087 -0.02150363 -0.04734151
0000c0 9f fd bc be 07 a8 cf 3e ae 08 97 3e 2c bc 2e 3f
       -0.36912248 0.40557882 0.2949881 0.6825588
0000d0 e1 ab a0 3e 3f 69 be 3e 3f 1b 58 39 57 6f 1e 3f
       0.31381133 0.3718967 0.00020609515 0.6188864
0000e0 5d 22 d7 be 3a 6d 98 be d3 30 fb be fe 7f 9d 3c
       -0.42018405 -0.29770833 -0.49060687 0.01922607
0000f0 2e 4d 28 bf 0d 68 e7 bd 7b ed 8e 3e 97 3f c9 3c
       -0.65742767 -0.11299143 0.27915558 0.024566455
000100 b7 4e 8e 3e 88 88 c5 3b 61 9c 1f bf a8 f8 a0 3c
       0.2779443 0.0060282387 -0.6234799 0.019649819
000110 d8 e4 be be 69 a4 61 3d 28 94 64 3e 06 60 2a 3f
       -0.3728397 0.055088434 0.22322142 0.6655277
000120 93 a6 1d bf be 82 e8 be 3e d2 1f bf 8f 55 4f be
       -0.615823 -0.45412248 -0.6243018 -0.20247482
000130 33 6d b3 3e e8 f2 9d 3e f6 55 87 bd d6 c2 ce 3c
       0.3504425 0.30849385 -0.066081926 0.02523939
000140 8d 3a 9b b9 c3 86 19 3f e1 48 76 3e 7a 2a f6 3e
       -0.00029607528 0.59971255 0.24051239 0.48079282
000150 27 92 d3 3e c5 9b db 3e c6 d6 a2 be e0 08 d9 39
       0.41322443 0.4289228 -0.31804484 0.00041396078
000160 f5 aa 54 3e b6 4e e2 bc 38 98 b0 3a 0c c3 88 3e
       0.2076834 -0.027625423 0.0013473099 0.2671131
000170 de 0b 36 3e d3 fd 70 3e 6a 02 02 3f e4 69 5f ba
       0.17777964 0.23534326 0.50784934 -0.0008522554
000180 a2 6e 36 3e 03 c1 c7 3e eb 62 01 bf c4 fe 8c 3e
       0.1781564 0.39014444 -0.5054156 0.2753812
000190 91 fe 1e 3e ed 8c 1c 3f 47 0c 26 3f d1 24 1d 3f
       0.15526797 0.61152536 0.64862484 0.613843
0001a0 b8 a6 d0 be d0 32 8f be 28 c1 b7 be c0 c9 9a 3e
       -0.40752196 -0.27968454 -0.35889554 0.30232048
0001b0 23 e1 87 3d 0c 49 94 be 97 37 97 3e b9 93 40 3e
       0.06634738 -0.2896198 0.295346 0.18806352
0001c0 be 73 e4 3b f7 dd 8c be 64 bf 2b be d8 30 c8 3e
       0.0069718054 -0.27513096 -0.16772228 0.39099765
0001d0 15 7f 1a 3f 05 d5 18 3e f2 e1 ad 3e 67 bc 6d be
       0.6035016 0.1492501 0.33961445 -0.23216401
0001e0 16 d4 f7 be b8 49 d1 3e 1e 58 30 3f eb a8 b4 be
       -0.48403996 0.40876555 0.68884456 -0.35285124
0001f0 03 f0 13 3a 7c ad 1c 3d e4 1d c2 3d cb 73 e8 be
       0.00056433695 0.038251385 0.094783574 -0.45400843

2.weight f4 [64, 128]
000000 9c 7e c5 bd 6d 85 2f 3d 7f ea 9b 39 f3 b8 16 3a
       -0.096432894 0.042851854 0.00029738617 0.00057496055
000010 ba 82 41 3d 3c f0 3a 3d f4 3c 71 bc 98 ea 54 3d
       0.04724381 0.04563926 -0.014724005 0.05198154
000020 4f 36 04 bd a6 b2 f6 3c d9 1a 14 ba 7c 3a 89 ba
       -0.032278355 0.030114483 -0.00056497526 -0.00104697
000030 c0 ad 59 bb 92 1e 8b b9 cb 6a a3 ba 88 30 19 3d
       -0.0033215135 -0.00026534923 -0.001246774 0.0373998
000040 07 1f 06 3d be c7 f7 b7 52 89 96 bd d2 18 4e bc
       0.032744434 -2.9537707e-05 -0.073504105 -0.01257916
000050 92 d2 90 36 5a 86 1c 3a 30 48 89 b9 97 e5 42 b9
       4.316048e-06 0.00059709477 -0.0002618446 -0.0001858681
000060 2d 3c 69 39 e9 e2 35 38 ea 72 92 b9 85 2a d3 bc
       0.00022243029 4.336509e-05 -0.00027932908 -0.02577711
000070 80 b3 c7 b9 36 f5 49 39 40 c3 8b bd 46 7c ea bc
       -0.00038089976 0.00019260202 -0.0682435 -0.028623711
000080 9f 32 af ba b2 f0 4a 3d 55 1d d8 bc de be 15 bd
       -0.0013366527 0.04954595 -0.026381174 -0.03655898
000090 92 e2 07 bd 3a 8c af bd ca 2a a9 3c 51 18 b5 b8
       -0.03317506 -0.08571668 0.020650286 -8.635282e-05
0000a0 1c 5f 3d 3a a9 c0 2a 3d 6a eb 01 ba c0 44 3f b9
       0.000722395 0.04168764 -0.0004956039 -0.00018240791
0000b0 da bd a8 b9 b1 f4 37 b7 b3 a8 6c 38 a1 20 11 bb
       -0.00032184907 -1.0964622e-05 5.6423898e-05 -0.0022144692
0000c0 7c e9 69 3d 85 10 a6 39 8f 28 8f bd 8d 46 af bd
       0.057107434 0.00031674295 -0.06990158 -0.08558378
0000d0 2a 64 50 3a 0b d2 40 39 41 1f 08 3a 9d e8 23 bc
       0.0007949496 0.00018388794 0.00051926455 -0.01000419
0000e0 6c 24 aa ba 7f cb 9e bd fd 06 b1 3a e8 f8 35 37
       -0.0012980825 -0.077536575 0.0013506111 1.0846394e-05
0000f0 33 3b 0d bd ef 87 6e 3a 54 89 02 3c 64 ba 89 b8
       -0.034480285 0.0009099235 0.007967312 -6.567387e-05
000100 2a 65 e1 3c b5 07 29 3d 2a 6b 8f bd 48 53 ef bc
       0.02751406 0.041267116 -0.07002862 -0.029214516
000110 39 51 ac 3a 55 e8 be bd 74 53 aa 3a 12 70 d3 ba
       0.0013146765 -0.093216576 0.0012994842 -0.0016131422
000120 f8 2a 82 3d 06 37 3c bd 45 6c 12 bd a8 12 c4 3a
       0.06355852 -0.045950912 -0.035747785 0.0014959173
000130 40 2b 79 3d f4 44 97 3d fa 51 a5 bd c5 c7 c8 bc
       0.060832262 0.07386199 -0.080722764 -0.02450932
000140 f9 6a 18 ba f0 6b da 3a 1e e9 b1 bd 79 e8 bc 3c
       -0.000581428 0.0016664248 -0.08687042 0.02306007
000150 bd d1 0f 3d 6e ec 1a 3c c6 22 80 39 a8 7c 46 39
       0.03511213 0.009455783 0.0002443997 0.0001892919
000160 13 22 a8 ba c6 14 2b ba 8b 65 39 39 23 7c 98 3a
       -0.0012827538 -0.0006526228 0.00017680803 0.0011633675
000170 8b 49 cb bd b6 e2 33 bd 78 c9 66 ba a7 f1 57 39
       -0.099261366 -0.04391738 -0.0008803825 0.0002059402
000180 d6 61 b4 bc a4 29 93 b9 ea f9 dd 3c 6c 4e c8 38
       -0.022019308 -0.0002806905 0.027096707 9.5513504e-05
000190 cd a2 a3 b9 45 9d 8c 3c e6 9e d6 3c 79 25 2e 3d
       -0.0003121108 0.017164836 0.026198816 0.042516205
0001a0 dd b9 17 3d 4d 79 81 bd ff 80 b7 39 79 8f 15 3d
       0.037042487 -0.063219644 0.0003500059 0.03651378
0001b0 76 67 84 3d b9 12 2e bc dd e6 7a 39 2a b8 78 3d
       0.06465046 -0.010624581 0.00023927861 0.060722508
0001c0 de 24 20 37 ac a9 00 3d 16 41 cc bd 48 cc 9c bd
       9.545327e-06 0.03141181 -0.09973352 -0.07656151
0001d0 59 e2 4c bd 4d 4c 62 bd b6 8c 72 bd 39 38 8f bd
       -0.05002055 -0.055248547 -0.059216224 -0.069931455
0001e0 dc b8 ad b9 89 14 b8 3c 20 1a 21 3c 02 bf 13 3a
       -0.00033134862 0.02247073 0.009832889 0.00056360674
0001f0 bf 53 0c ba 4e 27 68 b8 13 49 13 3a e5 81 5f b8
       -0.00053530553 -5.5349716e-05 0.0005618494 -5.3288317e-05
000200 74 44 76 ba f8 5d b9 ba 9f 00 19 38 09 32 fa b9
       -0.00093943556 -0.0014142385 3.647862e-05 -0.00047720995
000210 27 ea 32 3b 9f 00 9d 3a cd e2 11 3a 9f b4 a1 3a
       0.002730021 0.0011978335 0.0005565107 0.0012337154
000220 40 12 73 3b b8 15 52 ba 79 ab bd 38 d5 26 10 bc
       0.0037089735 -0.00080141006 9.0441616e-05 -0.008798321
000230 58 06 f8 3a 3a d0 ab 3a 30 49 69 38 a6 6b 8a bb
       0.0018922789 0.0013108321 5.561969e-05 -0.0042242585
000240 b1 12 a3 bb 08 ff d0 38 c3 b1 05 3b b4 b7 96 39
       -0.0049765934 9.965716e-05 0.0020400144 0.000287471
000250 48 8d 87 b7 83 b5 04 b9 c6 83 80 bb af 3a ad b8
       -1.6159043e-05 -0.0001265612 -0.0039219586 -8.2602135e-05
000260 dc 88 aa b9 40 b0 ae b9 02 7c 06 38 c9 4c 4c bb
       -0.00032526895 -0.00033319183 3.206358e-05 -0.0031173697
000270 5c 9d 02 39 d8 b2 17 3a 27 3e 40 ba 3e 25 86 3b
       0.00012456387 0.00057868427 -0.000733348 0.004093795
000280 25 a2 2e b8 91 56 96 b9 d6 96 b6 bb 38 65 26 ba
       -4.163584e-05 -0.00028674726 -0.0055721803 -0.000634748
000290 14 5a 84 3a b3 17 37 3b 97 eb 10 3b e3 40 9c bb
       0.0010097646 0.002793771 0.0022113079 -0.0047684773
0002a0 d6 97 19 39 62 0a 52 ba 3e b3 ac 3a 61 32 73 ba
       0.0001464778 -0.00080124114 0.0013175977 -0.00092772214
0002b0 62 ea 12 b8 54 91 d0 38 ec 3a 26 39 fe 25 46 3a
       -3.50274e-05 9.945282e-05 0.00015852944 0.0007558762
0002c0 78 59 f4 3a ce 9b a0 3a 87 64 a7 bb 51 19 78 bb
       0.0018642386 0.0012253465 -0.0051084193 -0.0037856887
0002d0 8f 1c a0 b9 d6 3a c9 bb 5b 48 b0 ba 3c 3a 39 bb
       -0.00030538856 -0.006141047 -0.0013449298 -0.002826347
0002e0 68 2a 04 3b 52 bb 86 b8 ff f5 72 38 21 10 b2 b9
       0.0020166878 -6.424509e-05 5.7926398e-05 -0.00033962823
0002f0 1c 76 76 3a c3 f0 20 b9 92 6e 8f ba 90 22 5d 39
       0.0009401755 -0.0001534848 -0.0010942987 0.00021089078
000300 60 77 40 bc 8f 5b a6 38 58 ed 4f 3b 5e d5 5c bb
       -0.011747211 7.932551e-05 0.0031727161 -0.0033696513
000310 c8 74 0c ba eb e0 4c 3b 02 04 b0 3a 51 63 8b 39
       -0.0005357978 0.0031261991 0.0013428929 0.00026586142
000320 8f c8 3d 3b 92 00 7d 3b ce 19 2b 3b ee 93 f3 3a
       0.0028958654 0.0038605076 0.002610791 0.0018583515
000330 3f 9e 93 b9 34 ef 4a bb 24 b3 a4 bb ef ba 06 bb
       -0.00028155927 -0.003096533 -0.005026238 -0.0020558198
000340 39 91 ba 38 6e 0d d7 3a b1 5e 36 3a 6f 7f 80 3a
       8.896221e-05 0.0016407201 0.0006956859 0.0009803603
000350 c2 ea ce b9 59 9e 60 39 bb 57 c9 b8 77 b5 3c b8
       -0.0003946629 0.00021421294 -9.600768e-05 -4.4991695e-05
000360 84 af 5b bb 3a 5d 01 ba 68 0d 0e 3a 06 2b 03 ba
       -0.0033521364 -0.00049348513 0.0005418868 -0.00050036644
000370 03 50 2e 3a f4 cd ca ba cb a9 a2 bc 6a 3b 72 3a
       0.0006649496 -0.0015472756 -0.019856354 0.0009240421
000380 bb 36 1c bb 5c 61 75 bc e7 30 5d 3b 18 b9 58 bc
       -0.0023836333 -0.014976826 0.0033751072 -0.013227724
000390 41 1a 74 bc da 3d 6c bb 92 df ef bb fa 08 01 bb
       -0.014898838 -0.0036047609 -0.007320353 -0.0019689188
0003a0 9f f5 8d 3b d1 7a 1c b9 38 cf 52 b8 5f 08 72 bb
       0.004332259 -0.00014923072 -5.026089e-05 -0.003693126
0003b0 9a c7 01 bb 09 23 78 3a 9d c0 37 bc b7 6c ba b9
       -0.001980281 0.000946567 -0.011215356 -0.00035557683
0003c0 d2 ca a5 38 63 85 2c 3b f1 73 b6 3a 7e f0 0f bb
       7.905591e-05 0.0026324622 0.0013920051 -0.0021963413
0003d0 89 1c 9c 38 90 bd 65 3a ed 4e 33 bc 04 ad 59 3b
       7.443975e-05 0.0008763904 -0.01094411 0.0033214698
0003e0 71 ce 09 39 ac 25 02 bb 3a 11 15 bb dc 96 45 b9
       0.00013142244 -0.001985888 -0.0022745864 -0.00018843584
0003f0 15 3f 03 b9 c2 53 6a b9 14 d0 bb 36 35 9f 99 ba
       -0.00012516633 -0.00022347181 5.5972578e-06 -0.0011720421

2.bias f4 [64]
000000 46 0e 6d bd 5e 9d 1d bb 35 19 44 bd a0 17 35 3b
       -0.05787494 -0.0024050097 -0.0478756 0.002763249
000010 2b 5f 5b bb e6 cf b8 3c 83 d6 ba bd 91 6e 1b 3d
       -0.0033473473 0.022560071 -0.09122946 0.03794724
000020 07 be 09 bc 9c a3 67 3d 3f 64 0c bd 2f 7a 29 bd
       -0.008407122 0.056552514 -0.03427529 -0.04137629
000030 1b b2 ed bc 00 4a c5 bd 46 56 4d bd 2a 26 87 3d
       -0.029015591 -0.09633255 -0.050131105 0.06599076
000040 4f c2 74 3d c3 c3 62 bb 7d 56 a9 bb ef eb 80 3d
       0.05975562 -0.0034601546 -0.005167781 0.06295001
000050 7e a9 9a 3d f3 ea b8 bc 2c aa 6f 3d 01 47 a3 bc
       0.07551859 -0.02257297 0.058511898 -0.019931318
000060 7f ad 79 bb 7b e3 e9 bc 13 61 15 b9 26 3c a0 3c
       -0.0038097796 -0.028550854 -0.0001424591 0.019559931
000070 2e de e7 3b 93 68 5e 3c cd 8d a6 bc a5 7c 08 3a
       0.0070760464 0.013574737 -0.020331288 0.0005206562
000080 7d 05 03 3d a3 00 fb bb c5 72 69 3d 75 60 49 3d
       0.031987656 -0.007659988 0.05699422 0.049164254
000090 e6 94 88 bd 29 fd 7d bd f0 66 b5 3c d6 67 cd b9
       -0.06669025 -0.06200901 0.022143811 -0.0003917801
0000a0 3e 49 a1 3c d2 8b 94 bc a5 0a e8 3a 91 4f f2 3c
       0.019688245 -0.018133078 0.0017703368 0.029578956
0000b0 ac 6b 35 3d 1a 1e ad bd 9e f6 b1 bb 26 c4 f4 3c
       0.044292137 -0.08453007 -0.0054310104 0.029878687
0000c0 7f 15 5b bd 8b 9c 66 bd 66 73 99 3b bb f1 32 bb
       -0.053487297 -0.056301635 0.004682946 -0.0027304727
0000d0 84 aa 8e bd 13 57 ba bc 18 72 db bb 96 e9 21 bc
       -0.06966117 -0.022746598 -0.0066969506 -0.009882351
0000e0 3e 1d b2 3d f8 4a 38 3b 98 3d f6 39 dc 1b 09 bc
       0.08696984 0.0028120857 0.00046966667 -0.008368459
0000f0 d2 f1 f8 3c b4 28 07 bc 2c b1 83 3b 11 76 35 bc
       0.030388746 -0.0082494505 0.0040189233 -0.0110755125

4.weight f4 [4, 64]
000000 ef 54 49 bd 1c 7d c7 b9 8b 0c 07 bd 91 51 99 bd
       -0.049153265 -0.00038049452 -0.032970946 -0.07486261
000010 3c 09 8c 38 71 0c cf 3c dd 19 a1 bd b8 3e f5 3d
       6.67744e-05 0.025274487 -0.07866261 0.11974853
000020 bf 57 3d 3a c7 88 aa bd ca 57 3d 3d d4 36 14 bd
       0.0007222853 -0.083268695 0.0462263 -0.0361851
000030 ee 07 4b bb 2f 78 8c 3d fb b8 af 3c 28 88 05 3e
       -0.0030980068 0.06858861 0.02145051 0.1304022
000040 6c eb c1 bc 2e a0 ef b9 cc cc 50 bc c3 00 dd bd
       -0.023671828 -0.00045704975 -0.01274414 -0.10791161
000050 07 29 02 3e 0f 2c ae bd d3 9f c6 3d 81 f0 24 3b
       0.12710963 -0.08504497 0.09698453 0.0025167766
000060 fd c8 1d bc 50 e0 9f bd 8e 71 cf 3d 8d 64 7d bd
       -0.009630439 -0.07806456 0.10129081 -0.06186347
000070 5d 30 50 bc 28 22 b4 3c aa db f0 bd 35 b3 3a 3c
       -0.012706843 0.021988943 -0.117606476 0.011395265
000080 20 4f 46 3d 59 e2 73 3b 85 bc cc bb 80 b3 09 3e
       0.048415303 0.003721377 -0.006248059 0.1344738
000090 19 48 22 bd db ce 31 bd ce cd b7 bd 70 b2 dc b9
       -0.03961954 -0.043410163 -0.08974801 -0.00042094616
0000a0 d7 a4 f2 3d 6c 9f f2 bb 95 31 7b 3b 81 63 dc 3b
       0.11847847 -0.0074042585 0.0038329114 0.006725729
0000b0 61 60 ac 3d 63 d6 ba bd fd 25 d3 bd b4 2d 1a bd
       0.0841682 -0.09122922 -0.1030998 -0.037641242
0000c0 02 25 c0 bd 3c bf a3 bc 8b 1f 17 3d 9c ad 58 bc
       -0.09382059 -0.019988649 0.036895316 -0.013224985
0000d0 56 b6 80 3d a4 cb c5 bb 92 01 4a bc 79 4b 4e 3c
       0.06284778 -0.0060362387 -0.012329476 0.012591236
0000e0 8d 17 6b 3d a0 cb b2 3d e3 c3 ee b8 82 4b ad 3a
       0.057395507 0.08730245 -0.00011385211 0.0013221356
0000f0 b0 97 b1 3d a0 31 37 3d 12 80 ca ba 30 d7 6c bc
       0.0867151 0.04472506 -0.0015449545 -0.014455602
000100 8a 91 84 bd cc 71 32 3d ca 60 84 bd b7 02 49 3d
       -0.06473072 0.043565556 -0.064637735 0.049074855
000110 25 2f 59 3d b4 22 28 bd 81 46 4f 3c 06 65 88 3d
       0.053023476 -0.04104872 0.012651087 0.06659894
000120 b2 7a 66 39 c4 d7 25 3e b3 3a 24 bd 31 97 8a bd
       0.00021980217 0.1619559 -0.040095042 -0.06767119
000130 f1 a2 ca 3d ce d6 95 3c 27 ef 8e bd fc a2 2b bd
       0.0989436 0.018290903 -0.069792084 -0.04190348
000140 a8 c3 0f 3e 36 04 b1 3a 91 35 95 3c 73 34 72 bc
       0.1403948 0.0013505283 0.018214019 -0.014783013
000150 09 46 f9 3d 43 11 86 3c cf 7c d8 3d 75 ab e3 3d
       0.12171561 0.016365653 0.1057068 0.11116687
000160 18 d5 8a 3c 0e b8 4e 3d db b4 f9 3d 8d 8b 19 3e
       0.016947314 0.050468497 0.121926986 0.1499464
000170 25 fe 45 b9 80 58 d5 3d 5c ae 17 3e ba 40 06 ba
       -0.0001888206 0.10417271 0.14812607 -0.00051213393
000180 0c 73 6c 3d 4f bd 80 3b f0 84 43 3d 07 52 1b 3e
       0.057726905 0.0039288173 0.0477342 0.1516801
000190 5e e5 31 3e a9 9a ce bd d6 7d 53 3e 34 a9 f1 b9
       0.17372653 -0.10088093 0.20653471 -0.00046093168
0001a0 84 88 14 bd ca c8 b2 3c 11 37 27 bc 8b bd 35 bd
       -0.036263004 0.02182426 -0.010206 -0.044370215
0001b0 c8 1a 3d 3d 4d 1f 71 3d ce 16 bf bd b8 18 d2 bd
       0.04616812 0.05886774 -0.093305215 -0.10258621
0001c0 41 75 95 3d 6b de ee 3d 91 59 86 bd eb bf ae ba
       0.07297755 0.116635166 -0.06560052 -0.0013332342
0001d0 a8 f2 a2 bd b7 bc 07 3d 02 d9 b2 39 46 98 bf 3a
       -0.07956439 0.033138957 0.0003411249 0.0014617525
0001e0 bc 1a 52 bd bc c0 0e 3e b3 86 9b b8 a6 21 f8 b6
       -0.051295027 0.1394071 -7.416066e-05 -7.394893e-06
0001f0 a4 ff 15 3e 84 d7 a4 3d bb c2 5f 3d 72 f8 94 3c
       0.146483 0.08048919 0.05462907 0.018184874
000200 62 39 18 3c 01 fb cf ba b0 59 cf 3d 2c f0 8c 3d
       0.009291025 -0.0015867652 0.101245284 0.06881747
000210 33 70 18 3b 0e d8 9a 3b 0c 52 7e 3d 47 36 ae bd
       0.0023260235 0.0047254628 0.062089965 -0.08506446
000220 b3 d6 b0 3a b1 34 1d 3d a1 80 1f 3d 70 09 bd 3d
       0.001349172 0.03838033 0.03894103 0.09230316
000230 b2 9a 77 3d a4 03 a6 bd dc ba a2 bc ba 99 8c 3d
       0.060450263 -0.08106163 -0.019864492 0.068652585
000240 46 3b e2 3d 29 f2 df 39 e5 61 10 bd 1d 6f 1d 3d
       0.11046462 0.00042714298 -0.03524961 0.038436044
000250 ca df a2 3c bd ec 27 bd 95 1b 9e bd 00 b7 2a 3d
       0.019882102 -0.040997256 -0.077201046 0.04167843
000260 9a 74 d6 bc 9c 01 e2 bd 35 df e5 bb ca 2a be 3c
       -0.026178647 -0.11035463 -0.0070151337 0.023213763
000270 00 87 a9 3a fe 1a ed 3c 62 f2 ac 39 fc 99 e4 3a
       0.001293391 0.028943535 0.00032986986 0.001744091
000280 e9 c7 96 3d 57 2a 99 bc f5 57 ae 3b e1 14 65 bc
       0.073623486 -0.018696947 0.005320544 -0.013982029
000290 91 18 a0 3d 1c fc bb 3d cc 93 34 bc 90 3d 38 bb
       0.07817186 0.091789454 -0.011021566 -0.0028112866
0002a0 81 b5 b8 bd 47 8a cf bc 3d 75 55 ba 46 e4 ea 3d
       -0.09018994 -0.02533449 -0.0008142775 0.11469321
0002b0 c8 c0 db bc 1e 48 79 3d a3 66 52 3d 71 72 70 3b
       -0.026825324 0.060859792 0.051367413 0.0036689306
0002c0 a3 8c 8d 3d 96 58 b6 bd 72 30 8b bd aa aa a3 bb
       0.0691159 -0.08903615 -0.067963496 -0.00499471
0002d0 83 34 2d bd 86 5b 44 bd e6 42 6b bb 9d 65 5a bc
       -0.042286407 -0.047938846 -0.003589803 -0.013329891
0002e0 fa b9 00 3e 6c 7a 06 bd 47 ca ad ba 1a 66 92 ba
       0.12570944 -0.032831594 -0.0013259136 -0.0011169345
0002f0 18 67 84 3c 54 c3 a9 3d 3c 63 97 bb 28 40 2f bc
       0.01616244 0.08289209 -0.004619984 -0.010696448
000300 d4 ed 86 bd 51 dc 40 3d ce 56 42 3e 21 cb 2b 3d
       -0.06588331 0.04708511 0.18978426 0.041941766
000310 5a 5c b5 3c 83 8b 1f 3e 25 f1 ba bc e9 d7 b8 3c
       0.022138763 0.15580563 -0.022820065 0.022563891
000320 65 8c 56 b9 75 5e c0 3d d0 b8 13 bd 1c 9f 6b 3d
       -0.00020460931 0.09393016 -0.036064923 0.057524785
000330 71 e9 19 3e e3 71 b0 bd 3d ed 03 3e 47 b2 c3 3d
       0.15030457 -0.08615472 0.12883468 0.09555488
000340 95 68 e2 bc a3 30 c9 39 fc f6 86 3c 83 08 f9 3d
       -0.02763776 0.00038373945 0.016475193 0.121598266
000350 ce 07 a3 3d be 1f ca 3c cb 5b 1a bc ca 97 b7 bc
       0.07960473 0.024673339 -0.009421299 -0.022411246
000360 f1 25 00 3d 61 aa 12 3e 7f 10 aa bc 6d b5 09 3e
       0.031286184 0.14322807 -0.02075982 0.13448115
000370 69 54 e1 3a e9 9d 7f 3d 39 95 01 3e 96 b9 c9 b7
       0.0017191294 0.062406454 0.1265458 -2.4047487e-05
000380 3f 7c 7c 3c 0e e0 06 3c cd 7d e8 3d 1f f1 77 3d
       0.015410482 0.00823213 0.113521196 0.060532685
000390 5f 9f 17 3e d9 46 52 bd 0f 95 27 3e 8c 16 1e 3a
       0.14806889 -0.051337097 0.16365455 0.00060305814
0003a0 3d b2 3c 3e 9b 05 91 3c 82 29 bd b8 e7 01 2e 3e
       0.18427368 0.017702868 -9.019954e-05 0.16992913
0003b0 6b 76 0f 3e ef 77 ac bc 65 d3 82 bb d7 06 b7 ba
       0.14010017 -0.021053283 -0.0039924853 -0.001396383
0003c0 f9 af e2 3a 51 97 cd 3d 21 49 de 3d ac 21 4e 3a
       0.0017294876 0.10038627 0.10853792 0.0007863294
0003d0 f0 11 d2 3c 3e fd aa 3c bb 77 f2 39 bc 42 28 3b
       0.025643319 0.020872708 0.00046247043 0.0025674542
0003e0 6d 0e 04 3e 3e 1a 0a 3e 35 98 3a b9 11 f9 69 38
       0.12896128 0.13486573 -0.00017795044 5.578349e-05
0003f0 e3 9e 6b 3d 27 f8 67 bc 3e 97 6b 3d c6 5c 24 3c
       0.057524573 -0.014158285 0.057517283 0.010031885

4.bias f4 [4]
000000 13 3c 9e bd d8 7f 24 3e 31 b1 02 3e 0c 36 da 3d
       -0.07726302 0.16064394 0.12762906 0.1065484

0.weight f4 [128, 2]
000000 0e 4f f2 3e 9b 41 5c 3f 37 de 20 3d ba 09 e2 be
       0.4732594 0.86037606 0.03927442 -0.44148046
000010 b7 a8 a0 be 71 91 73 bd 38 3b 44 3f bf 2d 5f 3f
       -0.3137872 -0.059464876 0.7665286 0.8717918
000020 88 58 e2 bd 2c fc f6 be ab 34 f3 be 52 2a 9c 3e
       -0.11052042 -0.48239267 -0.4750112 0.30501038
000030 c8 bf ad 3d 52 b9 75 3e 8d 67 7c bd 9f 10 cc 3d
       0.08483845 0.23996475 -0.06162219 0.09964108
000040 a2 59 62 bb 93 08 69 bd 72 cf 41 bb b1 c0 df be
       -0.0034538289 -0.056892943 -0.002957311 -0.437017
000050 70 91 3b 3f e6 2f 1d 3e a2 64 f0 bd 47 44 17 3f
       0.73268795 0.15350303 -0.11737944 0.5908856
000060 11 15 0f 3f e6 1e 90 3c 41 1c 91 ba 4d ad 9f be
       0.5589152 0.017592859 -0.0011071042 -0.31186906
000070 f3 f3 a1 3c 05 94 4c 3f 84 e9 bc 38 eb 54 a9 be
       0.019769644 0.7991336 9.008034e-05 -0.330726
000080 32 cb 58 3e 9f a0 bd 3e f1 29 77 be 9a 62 59 be
       0.21171263 0.37036607 -0.24137093 -0.2122902
000090 e9 c8 c0 3d de ca b0 be 1e d2 02 3f 7d 82 80 be
       0.094133206 -0.34529775 0.51101863 -0.25099555
0000a0 62 14 fe 3e ee 32 9c be 74 ff 78 3e 22 6a c0 bd
       0.49624926 -0.30507606 0.24316198 -0.09395243
0000b0 ac e2 43 3d 71 8c de 3e 61 d3 48 be d8 ae 3c 3f
       0.047823593 0.43466523 -0.19611885 0.7370429
0000c0 c2 41 72 3e b3 eb cc 3e 70 fc a0 3e 59 6f e7 3e
       0.23657897 0.40023574 0.31442595 0.4520214
0000d0 76 39 0f 3f ff a0 ef be 13 e0 1f 3e ac 8e 40 be
       0.55947053 -0.46802518 0.15612821 -0.18804425
0000e0 6f c3 00 bf 76 8e 9b be 5d 8a 52 3f 00 f7 4a 3f
       -0.5029821 -0.30382127 0.82242376 0.7928314
0000f0 36 4e 68 be fc 96 fa be 2b 49 6f be fa 94 11 bd
       -0.22686085 -0.48943317 -0.23367755 -0.035542466
000100 56 a5 09 3f 47 5f 99 3e 9b 7d 02 be 40 e9 82 3e
       0.5376791 0.29955503 -0.12743227 0.2556858
000110 e8 1b fa 3e 10 fb 1a 3f 44 a6 1e 3e 09 17 4b 3f
       0.48849416 0.6053934 0.15493113 0.79332024
000120 3c 0b a7 3e ff 9c 11 be 28 c0 db be dc 2b 46 be
       0.3262576 -0.14220046 -0.4292004 -0.19352669
000130 b7 fe 01 bd 11 aa f9 be eb 57 1d 3f b9 0e ac 3e
       -0.031737056 -0.48762563 0.6146228 0.33604982
000140 b4 7c c3 be f1 11 6d bd dc ea 3c 3e ec 6c 51 3f
       -0.38181078 -0.05787844 0.18448967 0.81806827
000150 e5 14 68 be 00 41 6c be 8e f3 a6 bd bf b8 26 bd
       -0.2266422 -0.2307167 -0.08151923 -0.04070353
000160 af c9 82 bb 11 b0 a2 b9 27 6d d3 3c a0 a1 bf bd
       -0.0039913277 -0.00031030228 0.025808884 -0.093569994
000170 dc 0d c1 3e d7 af 16 3f dd 07 a6 3e 9e 20 2a 3f
       0.37705886 0.5886206 0.32427874 0.6645602
000180 35 53 3d 3f 84 19 d2 3e 63 73 d9 bd 3b e7 d5 3e
       0.7395509 0.41035092 -0.106177114 0.41777977
000190 76 2d aa 3e 54 e1 ac be ff 76 21 3f 47 70 83 3e
       0.3323781 -0.33765662 0.630722 0.25671598
0001a0 1d 5f 41 3f ae d7 92 3e 0c 3d 31 3f 34 a1 ac 3e
       0.75535756 0.28680176 0.69233775 0.33716738
0001b0 f3 a4 ef 3d 3a f3 6f be f6 fb d5 3e ae 09 39 3d
       0.117013834 -0.23432627 0.41793793 0.045175247
0001c0 3a 7c 1f be 63 5f 03 bf cf ab 0e bd bf 55 37 3f
       -0.15574732 -0.51317424 -0.03483182 0.71615213
0001d0 ef 9d ae 39 8d 5c e4 be 11 39 e1 bd 2a 00 de 3e
       0.00033305536 -0.4460186 -0.10997213 0.433595
0001e0 d3 51 f9 3e d4 f7 f9 be 13 ed b9 be bc b6 d4 bb
       0.4869524 -0.4882189 -0.36313686 -0.00649151
0001f0 47 52 e4 3e fe 8f 88 be 59 4b 95 3e d1 0a 12 3f
       0.44594023 -0.26672357 0.29159048 0.57047755
000200 a1 cd 5d 3e 5f 3a 95 be 65 e6 a4 3b 2b 31 56 be
       0.21660472 -0.29146096 0.005032348 -0.20917194
000210 8e 76 0f 3e 19 aa 22 3e bd ca f8 bd 8f 22 41 3f
       0.14010069 0.158852 -0.12148044 0.7544336
000220 ab 1b f8 37 e8 eb 8f be cd 22 b6 3e d8 66 16 3f
       2.9576788e-05 -0.2810967 0.35573426 0.5875068
000230 1f 06 0e 3f 91 da 92 3e 55 01 67 3e 54 ac 04 3f
       0.5547809 0.28682378 0.22559102 0.5182545
000240 5b 4c 05 bc a6 21 ec b9 12 a0 ee 3e c7 54 01 bf
       -0.00813588 -0.00045038498 0.466065 -0.50519985
000250 76 63 4c be f0 e7 96 3e 9b a2 3d bd 97 af a6 bd
       -0.19959816 0.2947383 -0.04629765 -0.0813896
000260 3a 78 02 bd 9d ad 1f 3f c0 8e 07 3f 0d 48 c4 3c
       -0.03185294 0.6237429 0.52952194 0.023960138
000270 20 f4 e2 be 1b 50 bb bc 7f 44 3e 3d fc 03 52 3f
       -0.44326878 -0.022865346 0.04645204 0.8203733
000280 f6 53 7c bd 1e f5 a3 be e7 a9 af 3e 04 21 91 3e
       -0.06160351 -0.32022947 0.34309313 0.283455
000290 a9 5d c9 be c4 a3 4f 3f e3 28 85 be 28 8a 08 bf
       -0.3932927 0.8110926 -0.26007757 -0.5333581
0002a0 26 37 d8 bd 04 70 bd 3e 67 18 8b be 23 fc 3f 3f
       -0.10557394 0.36999524 -0.27167055 0.74994105
0002b0 e3 21 10 3f 8c 6d 3c be 16 6d 99 3a 37 af e5 be
       0.5630171 -0.18401164 0.0011705484 -0.4486024
0002c0 29 4e 89 3d c4 1f 27 3f d6 a1 53 bd 90 4a a4 be
       0.06704361 0.65282845 -0.05166801 -0.32088137
0002d0 35 67 98 bd c4 f0 a9 be fc e5 9c 39 a0 9f 28 be
       -0.0744156 -0.33191502 0.0002992599 -0.16467142
0002e0 8c 37 ac 3e aa 5f 85 be 9d ce 09 b9 d3 49 bb 39
       0.3363613 -0.26049548 -0.00013142308 0.00035722423
0002f0 27 6b c3 3d ff 76 3e 3f 93 d4 3b 3f 2e 46 5a 3e
       0.09541922 0.74400324 0.7337124 0.21315834
000300 d9 19 10 bb ca 74 c5 be bf 7c 64 bb e8 38 86 be
       -0.0021988063 -0.38565665 -0.0034864394 -0.2621529
000310 2d 93 38 3f 26 e7 93 3e 0c f0 f8 3b 54 32 a5 be
       0.7209957 0.2888729 0.007596975 -0.3226496
000320 1f 74 e9 be ed 43 f4 3e bd 72 1b 3f ad ab 0b 3f
       -0.45596406 0.47708073 0.6072195 0.5455883
000330 5a 0f b3 be e1 d6 24 3f 2b 71 04 bf f9 fb d3 3d
       -0.3497265 0.6439038 -0.5173518 0.10350794
000340 11 c0 34 3f 81 15 d0 3e 98 f2 c6 3b d2 55 cc be
       0.7060557 0.40641406 0.0060714 -0.39909226
000350 8d 72 22 3f f9 c6 e6 3e 99 d7 49 3f 07 02 09 3f
       0.6345604 0.4507368 0.788446 0.5351872
000360 fc 26 86 bb d9 80 0d be 9a 41 51 3f 4d 54 b9 3e
       -0.004094003 -0.13818683 0.81740725 0.3619713
000370 c9 d9 a9 be 84 44 1e 3f 9d 66 f6 3e d8 d0 0a 3e
       -0.3317397 0.61823297 0.48125163 0.1355623
000380 93 85 32 3d 7a 9b b6 be 68 a7 45 3f 79 24 59 3f
       0.043584418 -0.35665494 0.77208567 0.8482128
000390 6a c5 b0 3d bc f6 13 be f3 5e 12 bd 58 e2 a6 be
       0.08631404 -0.1444959 -0.035735082 -0.32594562
0003a0 2e 9d d2 be 28 88 ac bd 2d 0b 26 3e 67 7e 0b 3f
       -0.41135544 -0.08424407 0.162152 0.5448975
0003b0 e6 66 63 be d7 89 c8 be ca 05 4d 3f 94 ee 43 bd
       -0.22207221 -0.39167663 0.8008696 -0.047834948
0003c0 b5 a3 3a be 7b 02 d2 bd 75 78 9a be a3 0d 2b 3f
       -0.18226512 -0.10254379 -0.30170026 0.66817683
0003d0 88 06 e6 3e 52 68 0d 3f a6 41 bc be e9 7e 49 3d
       0.44926858 0.55237305 -0.36768836 0.049193297
0003e0 87 95 13 b9 1d 59 a6 b9 d3 9b 2c 3f a8 d0 f6 3e
       -0.00014074716 -0.00031728382 0.6742527 0.48206067
0003f0 92 77 ea be f1 df 2f 3f a8 64 32 3e 7a 40 1b be
       -0.4579435 0.6870108 0.1742121 -0.15161315

0.bias f4 [128]
000000 ff 2e 40 3e 0f 8d 00 3a 5a f4 04 3c 8c a9 c0 3e
       0.18767928 0.0004903832 0.008114899 0.37629354
000010 77 2e e4 b9 bf 4f 41 3e 31 3b c2 3e 1b 64 20 3f
       -0.00043522168 0.18878077 0.37935784 0.6265275
000020 cf b3 9c ba fe 08 ae 3d 49 35 a0 bc 12 c4 0d 3f
       -0.0011955443 0.08497809 -0.019556658 0.55377305
000030 96 6d 48 3f 7f a2 ff bd ce 69 be 3e f2 97 09 bf
       0.78292215 -0.124821655 0.37190098 -0.53747475
000040 09 7e f4 be 56 21 44 3e e0 f9 90 ba 36 62 c3 3c
       -0.47752407 0.19153342 -0.0011060797 0.023850542
000050 c4 fd c7 be b4 1b 67 be c8 2c a5 be 74 af 9b be
       -0.39060795 -0.22569162 -0.32260728 -0.30407298
000060 ca 99 5f be a6 f7 bf be 7c e3 41 3f 8a ed 39 be
       -0.2183601 -0.37493628 0.7573774 -0.1815702
000070 1a 1f 05 3f af b5 2f 3f de 1a 07 3f f1 7b dd be
       0.5200058 0.686366 0.5277537 -0.43258622
000080 5c 46 0c 3f a2 bb 22 3e f0 01 79 be cf 67 e9 be
       0.5479486 0.15891889 -0.24317145 -0.45587012
000090 2e 9b a4 be 61 65 40 3f fe 3e e9 be d1 2d 43 3f
       -0.32149643 0.7515469 -0.45555872 0.76241785
0000a0 00 ae 98 be 43 5e 1f 3f 83 58 2e 3f 7c 7c 08 3f
       -0.2982025 0.62253207 0.6810381 0.5331495
0000b0 6b 25 98 be e5 69 6a 38 26 55 ff 3e e0 3e 56 3e
       -0.29716048 5.588857e-05 0.4986965 0.20922422
0000c0 d6 fc 48 3f 53 62 cd 3d f8 e9 d2 b9 5e 40 b9 3d
       0.785108 0.100285195 -0.00040228642 0.0904548
0000d0 80 71 cb bd 3d 0c e1 be 2d 7a b6 be f5 14 c1 3e
       -0.09933758 -0.4395465 -0.35640088 0.377113
0000e0 1f 3a d8 3e d8 02 97 3c e6 13 d1 3e 14 0c 34 3e
       0.42231843 0.018433973 0.40835494 0.17582732
0000f0 83 ce 07 be 7b 5f 94 bd d7 25 69 bd ce 42 bc 3e
       -0.13262372 -0.07244774 -0.056920853 0.36769718
000100 6f 4d 3a 3e ee 5e 53 be 21 ec 5d 3f 71 49 5c 3f
       0.18193601 -0.20641682 0.8668843 0.8604956
000110 68 70 9f ba 85 3e 09 bf bc cd 67 bd b1 a3 23 3e
       -0.0012164237 -0.5361102 -0.056592688 0.15980412
000120 c7 f7 0a be 4d ea f5 be 23 7d 5a 3f 52 dd 60 3f
       -0.13571082 -0.4803032 0.85347193 0.8783771
000130 3c 5e 4a 3f e8 1c d7 3e aa cb 0b 3d ae 23 6e 3d
       0.7905004 0.4201424 0.034129776 0.058139496
000140 b8 80 12 ba 01 39 0a be 2c b0 58 3f 7f f9 a9 39
       -0.00055886386 -0.13498308 0.84643817 0.0003242008
000150 42 d9 0a 3f 9f de 5c bd 6c ae 2b 3f 89 ed 8b be
       0.5423776 -0.053923246 0.6706302 -0.27329662
000160 0d f4 da be 35 e5 78 3d ee 53 4a be 82 e2 5f 3b
       -0.4276432 0.060765464 -0.19758579 0.0034162109
000170 15 fb 35 3f a0 d4 c3 be ad 3d e4 be 98 15 0c 3f
       0.71086246 -0.38248158 -0.44578305 0.5472045
000180 c9 bf a7 be 7d af de be d8 be 1e 3f a0 7a 2d 3d
       -0.32763508 -0.43493262 0.62009954 0.042353272
000190 d1 e3 b8 be ef c4 b5 3d a5 37 62 3e 83 e4 13 3f
       -0.3611131 0.08875453 0.22091539 0.57770556
0001a0 dd 85 23 3e 6a f8 9a be 1f 18 41 3f 05 5f f4 3e
       0.15969034 -0.3026765 0.7542743 0.47728744
0001b0 de d7 18 3b 04 b0 d5 3e c2 11 66 be 15 e2 55 3f
       0.0023322026 0.41735852 -0.22467712 0.835481
0001c0 e6 09 cc 3d 16 bd 8a be 8a 79 bf 3e 94 44 ac 3e
       0.099628255 -0.27097386 0.37397414 0.3364607
0001d0 71 31 d8 bd f4 c5 2b be 57 b5 b9 3e c3 46 a4 3e
       -0.10556305 -0.16774732 0.36271164 0.32085237
0001e0 14 40 37 b8 33 e3 bd 3e 30 d7 ea be 23 61 58 3f
       -4.3690277e-05 0.37087402 -0.458673 0.8452322
0001f0 3c 13 05 bf f2 84 3e be 8b 4c 57 3e f3 5c 11 39
       -0.51982474 -0.18605402 0.21025293 0.00013862904

2.weight f4 [64, 128]
000000 95 86 39 3e 9a 74 43 b9 e5 db a9 39 81 29 60 3e
       0.18117745 -0.00018640087 0.00032398026 0.21890832
000010 f9 c1 17 ba 51 46 3f 3e 90 ad 36 3e ee 53 4a 3e
       -0.0005789097 0.18679167 0.17839646 0.19758579
000020 8f 99 7e 3a 27 90 ae b9 e2 1d 2f 3e 54 f7 0e 3e
       0.0009712213 -0.00033295268 0.17101243 0.13961536
000030 e1 14 50 3e 89 e5 fa 39 39 63 65 3e 58 69 3d b6
       0.20320465 0.00047854733 0.22401132 -2.8224513e-06
000040 dc 9e 50 3e 0c 08 35 39 e4 bd 83 b7 f4 8b 53 37
       0.203731 0.00017264503 -1.5704842e-05 1.2609165e-05
000050 41 96 7b b9 25 40 e2 39 35 39 43 3e b1 c9 4b 3e
       -0.000239932 0.0004315387 0.19064792 0.19901158
000060 f4 24 07 3e 3e 40 d3 3d b0 5f 36 3e 91 6b 5d b8
       0.1319769 0.103149876 0.1780994 -5.2790685e-05
000070 e5 5c fc 39 b1 37 48 3e 29 e5 91 39 75 7d 11 38
       0.00048134397 0.19552495 0.00027827293 3.4687535e-05
000080 69 57 31 3e 04 73 15 3e dd 0d a3 3d 95 64 5e 3e
       0.173185 0.14594656 0.079616286 0.21718056
000090 66 9d 52 ba 54 e3 b4 3d 8e f9 b2 38 b5 22 6a 3e
       -0.00080343185 0.08832422 8.5341846e-05 0.22864802
0000a0 4b d0 33 36 d2 e3 2c 3e b0 74 05 3e db 4b 18 3e
       2.679432e-06 0.16883782 0.13032794 0.14872687
0000b0 06 5b 81 3a 18 f0 34 ba 7c 36 da 3d 8b a4 2f 3e
       0.0009869046 -0.0006902232 0.10654923 0.17152612
0000c0 76 d4 b3 3d 60 11 13 3e 27 46 c5 38 26 27 56 3e
       0.08780758 0.14362097 9.406759e-05 0.20913371
0000d0 98 96 80 3e 19 7e 32 3e d6 ab 39 b7 89 fa 5c 3e
       0.25114894 0.17430915 -1.1066868e-05 0.21579947
0000e0 da 50 da b9 b7 32 14 3e 63 8f 93 b7 e0 2c f9 3d
       -0.0004164044 0.14472471 -1.7590535e-05 0.12166762
0000f0 3b f1 7c 38 7e 19 17 36 bf c7 c1 38 95 92 1b 3e
       6.0306145e-05 2.2515592e-06 9.240163e-05 0.15192635
000100 72 49 55 39 eb 72 56 b9 74 2c 31 3e b7 e9 26 3e
       0.00020340623 -0.0002045144 0.17302114 0.16300093
000110 f8 f1 91 3a 11 b0 b9 3d 05 af 5f 3e 14 52 52 3e
       0.0011134734 0.09066785 0.21844108 0.20539123
000120 f9 d4 ad 3a 79 0f 04 ba f5 82 de 3d ab 5b 96 3e
       0.0013262323 -0.0005037706 0.10864822 0.29366812
000130 ca 4a 91 3d 5f 09 46 3e 01 6d 6e 39 52 23 4d 3e
       0.07094343 0.19339512 0.00022738056 0.20033005
000140 24 e4 2f b7 d1 ec 3b 3e 1e 97 4d 3e c8 53 c4 b7
       -1.0483931e-05 0.18352057 0.20077178 -2.3404034e-05
000150 3b 70 20 3e 80 41 ba 3d da d2 d5 3d fe 66 78 b9
       0.15667813 0.090945244 0.10440607 -0.0002368949
000160 fd a7 28 3e 99 bf 13 39 0a 50 8b 38 48 2c 97 3a
       0.16470332 0.00014090388 6.642945e-05 0.0011533583
000170 18 01 ed 3d 8d 98 ae b9 ff f1 31 3e 1f ef b0 3d
       0.11572474 -0.00033301525 0.1737747 0.08639359
000180 54 e0 a8 39 3b 83 4e b9 12 76 f0 3d 4c 6f 0e b9
       0.00032210595 -0.00019694578 0.1174127 -0.00013583637
000190 7e e2 2c 3e cd 20 a5 3d 04 4e 29 3e d4 96 72 3e
       0.16883275 0.08062897 0.16533667 0.23690349
0001a0 03 20 f1 3d 46 db 49 b8 95 43 6e 3e 06 c8 6e 3e
       0.11773684 -4.812635e-05 0.23267968 0.2331849
0001b0 b4 28 17 ba a2 52 52 3e 38 f0 61 3e 54 f2 59 3e
       -0.0005766258 0.20539334 0.22064292 0.21283847
0001c0 f6 a9 3c 39 7d c4 d8 3d 8c 31 bb 3d b3 6b 8e 3a
       0.00017992393 0.10584352 0.0914031 0.0010865837
0001d0 6a 66 e6 b7 27 4d 9d 3d b9 2c 00 3a 3c b2 63 3e
       -2.7465827e-05 0.07680731 0.00048894767 0.2223596
0001e0 5c 3e 09 ba 27 1f b5 3d 8e 91 6f 3e d1 f3 14 3e
       -0.00052354275 0.088438325 0.23395368 0.14546134
0001f0 b5 e0 04 ba 10 92 a8 3d 7b d8 70 3e d4 90 0b ba
       -0.00050688843 0.08230984 0.23520081 -0.000532401
000200 bd 06 c4 3c cd a9 ac b9 b5 13 4b 38 4f 9c a6 3b
       0.023928994 -0.00032932908 4.8417325e-05 0.0050845514
000210 e1 65 36 39 f0 c9 4a 3d 11 ab 53 3d 49 e1 e4 bd
       0.00017394825 0.04950899 0.051676814 -0.11175782
000220 54 38 94 39 d9 90 26 39 88 72 08 37 f9 38 84 3c
       0.00028270727 0.00015884954 8.132898e-06 0.016140448
000230 c7 6a 9b bd 9b db fa b8 e0 fb bb bd c1 e5 c1 b8
       -0.075887255 -0.00011961834 -0.09178901 -9.245752e-05
000240 14 3f 5b bd 96 25 10 3a da bf 77 3a c5 1b 06 39
       -0.053526953 0.0005498765 0.00094508904 0.00012789581
000250 16 ee b0 ba 72 a3 13 ba 8c 5e ec bd 66 e9 d3 3c
       -0.001349869 -0.000563196 -0.11541471 0.025868129
000260 b5 f3 f5 bc f0 34 0d 3d 3d 47 ed 3a 4d b0 7b b7
       -0.030023435 0.034474313 0.0018102896 -1.5001814e-05
000270 e0 28 ec 38 13 ca 0d 3d e0 ef 53 39 1e ef 1b 38
       0.000112609705 0.03461654 0.00020211888 3.7177575e-05
000280 00 06 ef bd e1 5c 8a bd 3b 0f 52 bd 4c 8e b0 bd
       -0.11671066 -0.067559965 -0.051284056 -0.08620891
000290 e6 b7 a0 ba 04 c7 04 bd 60 2f a2 37 f7 b5 33 3d
       -0.0012261837 -0.03241636 1.9333966e-05 0.043874707
0002a0 d2 94 0e ba df 7e 8c bd a2 10 d0 b9 d3 46 22 3d
       -0.0005439046 -0.06860136 -0.00039685244 0.039618324
0002b0 c4 4c a7 3a 29 a2 e2 38 37 0c d1 bd 05 21 52 3c
       0.0012763967 0.000108067245 -0.10207408 0.012825255
0002c0 b4 20 60 3d 62 cf dd bd 4a e7 11 39 d6 f5 18 3c
       0.054718688 -0.10830571 0.0001391444 0.009335956
0002d0 b2 3c 10 3d ab 90 3b bc 32 01 b1 3a ca 4a 0f 3a
       0.035214134 -0.011448066 0.0013504385 0.00054661615
0002e0 42 27 fa b8 d7 b3 49 3d 13 5e bc 38 cc 27 bf 3c
       -0.00011928241 0.049243774 8.982061e-05 0.023334406
0002f0 02 a2 af 3a 0b 3c 7a ba 4e 80 82 b8 da 45 9d bd
       0.0013399723 -0.000954569 -6.222782e-05 -0.07679339
000300 ac c1 eb b7 de 94 fe b8 a3 43 27 3c 37 be 29 bc
       -2.8104369e-05 -0.000121393925 0.010208997 -0.010360292
000310 0a 97 42 b8 55 44 85 bd 8d 01 86 bd 89 17 ee bd
       -4.639387e-05 -0.06507174 -0.065432645 -0.11625583
000320 09 cb 30 b9 51 db 0c 3a b7 1c 9d bd c7 f5 f5 bc
       -0.00016860304 0.0005373257 -0.076714925 -0.030024422
000330 22 1d 0a 3d 0d 23 ba bc c4 cf a9 39 a5 4b 12 3d
       0.03371919 -0.022721792 0.0003238899 0.03571667
000340 38 fc 0c 39 4b 6e 7c bc fb 46 20 3c f9 8b a2 39
       0.00013445399 -0.015407155 0.009782548 0.00031003336
000350 3b a7 99 bd 8d ee 92 bd 9d b2 63 bd 4e 2d 43 b9
       -0.075026 -0.07174406 -0.05559026 -0.00018613526
000360 3d f1 19 3d 47 fe 0f ba ec ea c6 38 d8 f0 72 32
       0.03758358 -0.00054929074 9.485133e-05 1.41410155e-08
000370 74 cd 74 bd 3a f9 92 b9 29 41 03 3d 5a d7 d1 bc
       -0.059766248 -0.00028032978 0.032044563 -0.025615383
000380 5e c3 4a b6 79 6e d1 b9 12 15 a7 3c bd 82 59 39
       -3.0214064e-06 -0.00039945895 0.02039579 0.00020743436
000390 6d 94 cb bd b7 02 58 3d 44 66 79 bd 91 0d 2d 3d
       -0.09940419 0.052736964 -0.060888544 0.042249266
0003a0 fd 54 81 bd 71 79 6e b8 7e 73 6c bd ef d2 0f 3d
       -0.06315038 -5.6856723e-05 -0.05772733 0.03511327
0003b0 1e 88 94 b9 08 b7 eb bc 7b 15 84 bc 5b ba 89 3c
       -0.00028330175 -0.0287738 -0.016123524 0.016812494
0003c0 0c b2 f2 b7 f6 6b 99 bd 49 35 ae b8 c6 cc 10 39
       -2.8931558e-05 -0.07491295 -8.306892e-05 0.00013809194
0003d0 88 5c 8b b9 21 29 d7 bd 31 75 1e b9 e3 5b 5a 3b
       -0.00026581087 -0.105058916 -0.00015111711 0.003331893
0003e0 12 99 a4 b9 e3 d2 84 3b 0b fd 48 3d 98 22 dd bc
       -0.00031394564 0.00405346 0.049069446 -0.026994035
0003f0 75 f0 92 37 25 03 e1 3b 43 5e ff bc 91 fe 21 38
       1.7516528e-05 0.00686683 -0.031172877 3.8622475e-05

2.bias f4 [64]
000000 eb b4 e8 3d 1b 09 b9 ba 94 c6 e9 3c e8 af 99 3d
       0.11362632 -0.0014117094 0.028537072 0.075042546
000010 e2 df a6 3b 89 3b 5c 3d 91 c7 21 3e 26 bb 14 3e
       0.005092607 0.053767715 0.15798785 0.14524516
000020 a2 cb 17 3e f9 5d 3a 3e 1d 01 99 ba ea 27 09 3d
       0.14823774 0.1819991 -0.0011673305 0.03348533
000030 f2 37 d1 3d ed 7a 2c 3d 82 23 ce 3d bd 8c 36 bb
       0.10215749 0.04210942 0.10065366 -0.0027854883
000040 94 b4 87 bd 02 c5 88 bd e7 ad 8c bd 6d 0c 82 bd
       -0.066262394 -0.06678201 -0.06869107 -0.06350026
000050 e6 2e be ba 9b ff 36 3e 1d 1e 96 3d 9a 6d ec 3d
       -0.0014509826 0.17870943 0.073299624 0.11544342
000060 ee 85 58 3e 36 b2 5f bc 5c e7 a3 bd 40 23 af bc
       0.2114484 -0.013653329 -0.08003113 -0.021379113
000070 ad 6a 37 3d 33 98 fe bc 93 c8 24 bc d3 2e 43 3d
       0.04477947 -0.031078434 -0.010057586 0.047652077
000080 b0 20 65 3a 6f 67 45 3e 90 e9 62 bc c7 32 0a 3e
       0.00087405276 0.19277738 -0.013849631 0.13495933
000090 f9 80 6f bc 79 f3 2b bc b8 fb db 3d 4c bd 0f 3e
       -0.014618152 -0.01049506 0.10741371 0.14037055
0000a0 98 ce 6e 39 67 b6 23 bc 3c f9 b8 3d a4 3b fd bb
       0.00022774411 -0.009992219 0.09031913 -0.007728057
0000b0 58 67 9c ba 41 2b 0d bd 2c 0b e6 ba d1 c5 a3 3d
       -0.0011932654 -0.03446508 -0.0017550937 0.07996715
0000c0 eb 9b 89 3d 90 7f 02 3d 7c 75 df 3d 04 8a cb 3c
       0.06719192 0.031859934 0.1091108 0.024846084
0000d0 75 10 ac bd e1 d6 f1 3d 78 2c a2 bc ca b6 36 3e
       -0.084015764 0.11808563 -0.019796595 0.17843166
0000e0 51 53 23 3b f5 d7 29 3d d4 f4 01 3e 04 38 ed b9
       0.0024921487 0.04146572 0.12691051 -0.00045245897
0000f0 6f ec 2e 3d 27 36 a9 3d 18 c8 c7 3d ba 14 12 3d
       0.04270595 0.08262282 0.09754962 0.035664298

4.weight f4 [1, 64]
000000 12 33 43 be 98 44 dc 3c 9c d1 a2 3c 2c 5a 89 bd
       -0.1906245 0.026888177 0.01987534 -0.06706652
000010 3e 64 2f 3d 64 91 4f be ee f6 40 be d6 7c 5f be
       0.042820208 -0.20270306 -0.18844196 -0.21824965
000020 30 6c 83 be 8c 0b 7e be 71 1f 0e 3d 61 b7 ec bc
       -0.25668478 -0.24809092 0.034697954 -0.028896036
000030 66 dd 86 be c8 17 c3 3d 4f b9 c8 bd 6d ba bb 39
       -0.2634079 0.0952602 -0.0980097 0.00035806317
000040 07 3d 48 3d ff 9e 2f 3d 3c 0f 89 3d 52 b4 6b 3b
       0.048886325 0.04287624 0.06692359 0.0035965634
000050 68 aa 33 bc 71 09 61 be 84 eb 89 bd 62 a0 84 be
       -0.010965921 -0.21976258 -0.06734374 -0.25903612
000060 9d ff 4f be e7 2d 0c 3b 54 ac ab 3d b9 54 b2 3d
       -0.20312352 0.0021389665 0.08382478 0.08707566
000070 b6 b1 78 bb 51 00 03 3d da 78 0e bc 4d 42 bc 3c
       -0.003794772 0.031982724 -0.008695805 0.022980833
000080 4e 7d 99 ba 9a 10 88 be 2c 66 08 bc fd 5c 4d be
       -0.0011710317 -0.26575166 -0.008325141 -0.20055003
000090 9d d0 8d bb 1d f5 6c ba 0a 27 89 be 38 cf 37 be
       -0.004327847 -0.000903921 -0.26787597 -0.17950141
0000a0 a2 02 03 3a 5c 5d 11 bc 5e 56 90 be 9a 4f c9 3b
       0.0004997646 -0.008872356 -0.28190893 0.0061435224
0000b0 97 3b 83 3d 71 21 b6 3d 3c f3 69 ba 4f 5c 98 bd
       0.0640785 0.08893097 -0.00089244894 -0.074394815
0000c0 98 d2 cf 3d 2b 9c 7d be d1 16 39 be f8 7c 86 be
       0.101475894 -0.24766605 -0.1807511 -0.2626722
0000d0 58 9b 86 3d 05 38 40 be 1c c1 c9 3d 28 8f 3d be
       0.06572598 -0.1877137 0.09851286 -0.18511641
0000e0 82 10 a8 ba 9c 51 06 bd 92 a6 8c be 38 8b 25 b9
       -0.0012822303 -0.032792673 -0.27470833 -0.00015787489
0000f0 d6 ae 74 be b4 f2 8b be f2 5d bd bd bc 4a 56 3d
       -0.2389482 -0.27333605 -0.09246434 0.052317366
